saved_model/model_3.pth (torch, 204527 bytes, 13 tensors)

convs.0.lin_l.weight f4 [95, 10]
0.088381596 -0.036341473 0.21299233 -0.30222407 -0.075450346 -0.13384719 -0.2687523 -0.16593261
0.13935007 -0.0043932754 -0.24662676 0.10317296 0.13135679 -0.03501243 0.26747513 0.27998248
0.16138442 -0.2358631 0.34801495 -0.051048942 -0.047754508 0.03459463 0.15576467 -0.16221628
-0.31397924 -0.14313024 -0.110087365 -0.25861105 -0.32358944 0.13670783 -0.24318583 0.002074934
-0.21288687 0.059792306 -0.25537857 -0.06349479 0.075827 0.1084526 -0.07311438 0.012067957
0.22844343 -0.06458995 -0.15481433 -0.08145473 -0.10647183 -0.105298944 0.16753833 0.30048102
-0.10925967 -0.090472504 0.16487125 0.082596555 0.028539862 0.2505926 -0.0018153092 0.28667846
-0.26000062 0.33304346 -0.15868935 -0.18425535 -0.21722043 -0.16546121 -0.1328194 -0.052932452
0.13578916 -0.09841303 -0.22423826 0.30341384 -0.18112586 0.26149616 -0.19455877 0.19443189
0.12415644 0.063903406 -0.2697775 0.061712187 -0.18228146 -0.09083959 0.13320574 0.16725758
0.036337573 -0.032296546 -0.13619727 -0.51050204 0.007201194 0.39351 -0.31218857 0.2047897
-0.17916845 0.1098257 0.062294766 -0.06039554 -0.26252282 -0.053408198 -0.17051734 0.25215858
-0.25875515 -0.011710059 0.31132543 0.25619918 0.11733628 -0.2749454 -0.14839752 -0.24115174
0.04341332 -0.68013126 -0.14261818 -0.07391528 -0.05287686 0.20427047 0.033597577 -0.31413406
0.028334714 -0.002345224 -0.01453607 0.05040069 -0.26906878 -0.35722572 -0.088097654 -0.07338312
-0.27151084 0.304641 0.053633817 0.23902006 0.073276326 -0.24415952 -0.09259453 0.18202776
0.20051439 -0.3011617 0.24683373 -0.22125551 0.29464298 -0.22440335 -0.079868 0.120248236
-0.244441 0.17419377 0.26072598 -0.28167212 0.14383307 0.23794481 -0.34697506 -0.25580934
0.18021075 -0.23805837 -0.086066626 -0.20573781 0.019623844 -0.07856993 -0.39634535 0.057432972
0.07326843 -0.039686915 0.07981165 -0.052305523 -0.12812872 -0.4339017 -0.035443064 -0.14492728
0.22686441 -0.28286085 -0.23250104 -0.31590623 -0.19770563 -0.17146787 -0.10149981 0.14702454
0.0745957 -0.13467953 -0.32350153 -0.15139177 -0.069602236 -0.21779121 -0.29602537 -0.1361812
0.19754371 -0.16599365 0.15738548 -0.23263465 0.3310537 -0.16586445 -0.12726307 -0.06001172
0.06394712 0.05967059 -0.13331038 0.10381548 -0.026909698 0.22616434 0.015912378 -0.00523138
-0.040860474 0.02687788 0.12328124 -0.100250795 0.043762304 0.24742141 -0.18193746 -0.07922198
0.004441402 -0.2824271 0.15039775 -0.14660656 -0.22096507 -0.16553587 0.20414947 0.15485135
0.23612873 -0.2182936 0.071929134 0.2614062 0.069521114 -0.09929056 0.15067905 -0.019862833
0.053683393 0.26075917 0.1215622 -0.25010946 -0.28860998 0.037158538 0.19766147 0.16259585
-0.3288742 -0.33400294 -0.2638028 -0.24925551 -0.24943732 0.01066282 0.095616505 -0.26534033
0.0070458776 -0.094264865 0.14509231 -0.33586806 0.08759234 0.2301029 -0.056366444 -0.2409722
-0.24085495 -0.13388973 -0.14581053 0.19863741 -0.37326452 0.04564263 -0.016749607 0.2346124
0.14103542 0.2477014 0.023343103 -0.23500907 -0.22788711 0.19964853 -0.26447934 -0.09638729
00000000: 6901 b53d ccda 14bd a91a 5a3e 1dbd 9abe
00000010: b685 9abd 3d0f 09be e799 89be 3dea 29be
00000020: c9b1 0e3e 77f5 8fbb ba8b 7cbe 584c d33d
00000030: 6582 063e 3269 0fbd 80f2 883e dd59 8f3e
00000040: f541 253e 1986 71be 042f b23e b218 51bd
00000050: 3b9a 43bd 19b3 0d3d c680 1f3e 061c 26be
00000060: e3c1 a0be bc90 12be 7c75 e1bd ab68 84be
00000070: 84ad a5be 23fd 0b3e b505 79be 9efb 073b
00000080: 04ff 59be c7e8 743d fbc0 82be 8e09 82bd
00000090: 304b 9b3d 661c de3d febc 95bd aeb8 453c
000000a0: 13ed 693e bc47 84bd a687 1ebe bdd1 a6bd
000000b0: e70d dabd f9a6 d7bd 2b8f 2b3e a6d8 993e
000000c0: 89c3 dfbd a649 b9bd 02d4 283e 6228 a93d
000000d0: 6ecc e93c ac4d 803e abef edba 85c7 923e
000000e0: cd1e 85be ac84 aa3e 767f 22be 6fad 3cbe
000000f0: 086f 5ebe aa6e 29be cf01 08be b3cf 58bd
00000100: 500c 0b3e c58c c9bd b79e 65be 0f59 9b3e
00000110: 0f79 39be d3e2 853e 6a3a 47be 2719 473e
00000120: bb45 fe3d cadf 823d 4720 8abe ebc5 7c3d
00000130: fea7 3abe 1b0a babd 1667 083e 9245 2b3e
00000140: b5d6 143d 6249 04bd 4c77 0bbe 43b0 02bf
00000150: fef7 eb3b 257a c93e 2ed7 9fbe 64b4 513e
00000160: ef77 37be 4cec e03d cc28 7f3d 5061 77bd
00000170: 6469 86be 8ec2 5abd 199c 2ebe ee1a 813e
00000180: 8e7b 84be 8cdb 3fbc 0c66 9f3e 8a2c 833e
00000190: 014e f03d a5c5 8cbe 85f5 17be 7bf0 76be
000001a0: 2ad2 313d 151d 2ebf 800a 12be e560 97bd
000001b0: 6895 58bd 472c 513e 9d9d 093d 2ed6 a0be
000001c0: 341e e83c 54b2 19bb b228 6ebc f470 4e3d
000001d0: 62c3 89be 4ae6 b6be 8b6c b4bd e449 96bd
000001e0: 7803 8bbe e8f9 9b3e 22af 5b3d adc1 743e
000001f0: e611 963d f404 7abe 33a2 bdbd 7c65 3a3e
00000200: a553 4d3e de31 9abe fbc1 7c3e ce90 62be
00000210: 72db 963e fec9 65be d591 a3bd b544 f63d
00000220: be4e 7abe da5f 323e e07d 853e 5437 90be
00000230: fa48 133e cea7 733e b7a6 b1be 71f9 82be
00000240: 2b89 383e 93c5 73be b343 b0bd efac 52be
00000250: 2fc2 a03c 45e9 a0bd c7ed cabe d63e 6b3d
00000260: c20d 963d bf8e 22bd 4a74 a33d 513e 56bd
00000270: 2d34 03be 5d28 debe bf2c 11bd d167 14be
00000280: 254f 683e 23d3 90be c114 6ebe 76be a1be
00000290: 5873 4abe 4695 2fbe 22df cfbd 9a8d 163e
000002a0: a1c5 983d 6ee9 09be fea1 a5be 7206 1bbe
000002b0: 9e8b 8ebd a904 5fbe a390 97be 1673 0bbe
000002c0: e648 4a3e 3dfa 29be a929 213e c737 6ebe
000002d0: df7f a93e 5fd8 29be 4051 02be d9ce 75bd
000002e0: b5f6 823d 2669 743d 8482 08be 369d d43d
000002f0: ba71 dcbc a097 673e ad5a 823c ff6b abbb
00000300: 505d 27bd 002f dc3c e07a fc3d 4a50 cdbd
00000310: 1a40 333d 0a5c 7d3e d04d 3abe 223f a2bd
00000320: 2e89 913b 499a 90be de01 1a3e 0820 16be
00000330: ab44 62be 3c82 29be 8f0c 513e 5a91 1e3e
00000340: bbcb 713e 5c88 5fbe 954f 933d 09d7 853e
00000350: 1661 8e3d d958 cbbd 9c4b 1a3e 61b7 a2bc
00000360: 1ee3 5b3d 3a82 853e 9af5 f83d 590e 80be
00000370: b0c4 93be 8d33 183d c567 4a3e 877f 263e
00000380: 3362 a8be 6f02 abbe 2911 87be d63c 7fbe
00000390: 7f6c 7fbe 1cb3 2e3c 96d2 c33d b0da 87be
000003a0: 1be1 e63b f00d c1bd 1493 143e e6f6 abbe
000003b0: 9d63 b33d 18a0 6b3e 80e0 66bd 6bc1 76be
000003c0: aea2 76be 641a 09be 5b4f 15be 9b67 4b3e
000003d0: 871c bfbe c4f3 3a3d 7936 89bc 3c3e 703e
000003e0: 976b 103e 70a5 7d3e 093a bf3c 38a6 70be
000003f0: 3d5b 69be aa70 4c3e d669 87be b366 c5bd

convs.0.lin_l.bias f4 [95]
-0.22633992 0.08914127 0.18375973 -0.22910975 -0.35290515 -0.032055557 0.12708004 -0.18111637
0.37014574 -0.28569093 0.23387842 0.22792265 -0.19319423 0.04937455 -0.23584183 0.075548835
0.11419498 -0.009644109 0.057451192 -0.21824372 -0.23169374 -0.07069114 0.18399979 0.0065430333
0.25745213 -0.23069036 -0.21171492 -0.06629452 -0.1706828 0.17329942 -0.21060868 0.18484573
-0.24883753 0.16506469 0.13223682 0.11243508 -0.26738247 0.018639198 -0.17016333 -0.3150894
0.3154639 -0.28250676 0.05540864 0.1071318 -0.17148189 -0.30522552 -0.2992375 -0.11924097
-0.2143756 0.15472898 -0.20129329 0.24045266 -0.0048273616 -0.02155297 0.06499551 0.054412793
0.08563919 -0.08292422 0.14659832 0.2663586 -0.12691772 -0.07474678 0.14987354 -0.17268436
-0.050926473 0.088073626 -0.23251392 0.26387942 -0.23405816 -0.19640437 0.14464234 0.10263402
-0.27807897 -0.011575329 -0.071634166 0.07412457 -0.19477534 -0.1748825 0.054216843 0.06221944
-0.09137701 0.18335876 0.26969332 -0.014973178 0.2629969 -0.2711991 -0.0023703396 0.095813364
0.009288194 0.062115554 0.07591672 -0.014101091 0.176832 -0.04712014 -0.26671773
00000000: a7c5 67be b38f b63d 832b 3c3e bf9b 6abe
00000010: fcaf b4be b04c 03bd 4521 023e 9276 39be
00000020: be83 bd3e 1546 92be d37d 6f3e 8e64 693e
00000030: b5d4 45be f83c 4a3d 8580 71be 59b9 9a3d
00000040: 0fdf e93d 5302 1ebc f151 6b3d 487b 5fbe
00000050: 2041 6dbe 84c6 90bd 716a 3c3e f166 d63b
00000060: c4d0 833e 183a 6cbe cccb 58be 6cc5 87bd
00000070: 79c7 2ebe 6775 313e cda9 57be 3348 3d3e
00000080: 44cf 7ebe b806 293e 1769 073e 5d44 e63d
00000090: 5be6 88be 3bb1 983c 4c3f 2ebe 6653 a1be
000000a0: 7c84 a13e baa4 90be 2cf4 623d eb67 db3d
000000b0: f398 2fbe 8546 9cbe a835 99be 9c34 f4bd
000000c0: 4785 5bbe 4671 1e3e d41f 4ebe 3939 763e
000000d0: d82e 9ebb db8f b0bc 5e1c 853d f3df 5e3d
000000e0: 9a63 af3d 2cd4 a9bd df1d 163e 2860 883e
000000f0: b8f6 01be d714 99bd 7378 193e 2bd4 30be
00000100: 4798 50bd f25f b43d 2118 6ebe 341b 873e
00000110: f1ac 6fbe 3a1e 49be 1f1d 143e c931 d23d
00000120: 5e60 8ebe 73a6 3dbc efb4 92bd 9fce 973d
00000130: 3073 47be 6614 33be 7b12 5e3d d0d9 7e3d
00000140: df23 bbbd 66c2 3b3e 3e15 8a3e 0f52 75bc
00000150: 88a7 863e 9cda 8abe b357 1bbb cc39 c43d
00000160: 822d 183c e16c 7e3d 3a7a 9b3d 4308 67bc
00000170: 7313 353e 0c01 41bd 3a8f 88be

convs.0.lin_r.weight f4 [95, 10]
-0.34690174 0.17082624 0.15731035 0.14542821 -0.02787457 -0.09028132 0.1270538 -0.33199352
0.24995594 0.21774575 -0.045992967 -0.23917575 -0.26823378 0.009713726 0.029754406 0.16692628
-0.28732082 -0.09949227 -0.053283356 -0.033070736 0.009477258 -0.34107953 0.18223245 0.012797587
-0.3799292 0.0006041122 0.29521656 -0.5484089 -0.28776443 -0.11792932 -0.27034983 0.076420546
-0.003442931 -0.12858884 0.29545203 0.24433316 -0.13801214 -0.28801546 -0.026659409 0.11152222
0.088634156 0.16283278 0.12932715 -0.019662058 0.25061274 0.07554915 -0.36386442 0.25344244
0.20521724 0.12314517 -0.04042803 -0.33116925 0.13230415 -0.0014078027 -0.15404665 0.31085494
0.107828595 0.18183759 0.00079592306 0.112222746 0.11969304 -0.11040023 0.0958062 -0.24962848
0.06214846 0.11817218 -0.18993756 0.1860287 0.1605605 0.0080990335 0.0554282 -0.0016129353
-0.06337391 0.26137817 -0.013739053 -0.18364072 -0.22084628 -0.42802167 -0.30056834 0.25420073
-0.20934185 0.16491753 -0.20606613 -0.36317036 -0.31030804 0.20162326 -0.135195 0.32388857
-0.07794381 0.30087999 -0.1639293 0.030900126 0.21455264 0.16144297 0.1494639 -0.13065046
-0.21276176 -0.06426863 -0.26521954 -0.25550944 -0.39672375 0.31785515 -0.32286215 0.3457046
0.23208734 -0.79847026 0.23098466 -0.2887049 0.34172538 -0.20483623 -0.23884507 0.06471285
0.123102136 -0.19705659 -0.16202794 0.18783864 0.10041775 -0.30764154 -0.31300563 -0.21632758
0.2356846 0.17657085 -0.048564322 -0.1432458 -0.30417135 0.0010598969 -0.13951543 0.031801205
-0.10903982 -0.04654435 0.16101903 0.30904096 0.089737 -0.016568976 -0.30740738 -0.2982248
-0.011200504 -0.12583204 -0.2510819 -0.22766225 -0.223282 0.20707649 0.055225644 0.20623152
0.025800716 -0.2212522 0.089174524 -0.14572684 -0.05197477 -0.13519193 -0.11610628 0.20116964
0.28062388 -0.13455097 -0.15825409 0.07696319 0.081835195 -0.040039312 0.29337087 -0.0031988644
-0.13341461 0.15854566 -0.30151993 -0.1543476 -0.09266067 -0.11868254 0.1719823 0.12136114
0.17022057 0.12261277 0.04402517 -0.21355174 -0.30701083 0.2986685 -0.33847746 -0.17438447
0.077855386 0.27193737 -0.07511207 0.22296394 0.21071807 0.064882405 -0.086568326 0.027677441
-0.16695288 -0.2514101 0.20580323 -0.12653933 -0.19134499 -0.32676023 -0.023104664 0.035382744
-0.17242117 -0.076270446 0.20686415 0.21598569 0.21119629 -0.04502901 -0.415647 0.2090824
-0.00043732324 0.27467266 0.08539396 0.043439295 0.1391332 -0.2514586 -0.1384134 -0.35114428
0.3866378 0.043271746 -0.0032651408 -0.023891145 0.13372128 -0.27411476 0.2518897 0.001138431
-0.05811624 -0.3220491 -0.26410154 -0.17296945 -0.1719319 0.19465369 -0.22791472 -0.2803077
-0.2361879 -0.09927799 -0.12028778 0.026706643 -0.09154379 0.1416954 -0.056928508 -0.11691367
-0.33742112 0.19849838 -0.15465927 -0.017083954 -0.28692448 0.21971342 0.06874567 0.0059150155
0.15259962 -0.26902765 0.22409968 -0.2539241 0.17630072 0.038059484 0.013116403 0.22725745
-0.35558248 -0.2717722 -0.069249354 0.2199959 0.056641266 -0.050596997 -0.20583676 0.25527343
00000000: 1b9d b1be 13ed 2e3e f715 213e 22eb 143e
00000010: 3659 e4bc 6ae5 b8bd 641a 023e 0efb a9be
00000020: 73f4 7f3e bef8 5e3e 1f63 3cbd 7dea 74be
00000030: f055 89be 5226 1f3c 83bf f33c b9ee 2a3e
00000040: b71b 93be 9ac2 cbbd a63f 5abd 2e75 07bd
00000050: 8046 1b3c faa1 aebe 259b 3a3e f8ac 513c
00000060: 1586 c2be 495d 1e3a a026 973e 8764 0cbf
00000070: dc55 93be ed84 f1bd 4b6b 8abe 6082 9c3d
00000080: cca2 61bb cbac 03be 7d45 973e 7932 7a3e
00000090: 0e53 0dbe c376 93be d564 dabc c365 e43d
000000a0: d385 b53d a3bd 263e 566e 043e 5312 a1bc
000000b0: 5050 803e 83b9 9a3d 704c babe 35c3 813e
000000c0: 7824 523e 8933 fc3d dd97 25bd 048f a9be
000000d0: bd7a 073e 0586 b8ba 68be 1dbe 6128 9f3e
000000e0: 3dd5 dc3d a233 3a3e 7ea5 503a 0ad5 e53d
000000f0: a021 f53d 8419 e2bd 0a36 c43d 9c9e 7fbe
00000100: 628f 7e3d 4204 f23d fe7e 42be 4f7e 3e3e
00000110: f969 243e cfb1 043c ae08 633d 2169 d3ba
00000120: 2eca 81bd 5cd3 853e c419 61bc 500c 3cbe
00000130: 8725 62be a825 dbbe 18e4 99be 9926 823e
00000140: b65d 56be 24e0 283e 0003 53be 77f1 b9be
00000150: b2e0 9ebe 5476 4e3e 8f70 0abe b9d4 a53e
00000160: 01a1 9fbd f10c 9a3e 15dd 27be 4322 fd3c
00000170: b0b3 5b3e 4e51 253e 110d 193e 3cc9 05be
00000180: 38de 59be 469f 83bd dbca 87be 22d2 82be
00000190: 601f cbbe e9bd a23e 304e a5be 3100 b13e
000001a0: 4ea8 6d3e 8c68 4cbf 3e87 6c3e 21d1 93be
000001b0: a1f6 ae3e 97c0 51be cd93 74be 2c88 843d
000001c0: f91c fc3d 34c9 49be a7ea 25be c658 403e
000001d0: d2a7 cd3d 3183 9dbe 4642 a0be fa84 5dbe
000001e0: 4e57 713e fdce 343e 62eb 46bd 07af 12be
000001f0: 59bc 9bbe 3dec 8a3a 22dd 0ebe fb41 023d
00000200: 4550 dfbd 4aa5 3ebd 2ce2 243e 9e3a 9e3e
00000210: 08c8 b73d a9bb 87bc 8064 9dbe ecb0 98be
00000220: 5282 37bc 1dda 00be cf8d 80be 4b20 69be
00000230: 09a4 64be dc0b 543e 4934 623d 5b2e 533e
00000240: 065c d33c f08f 62be 22a1 b63d 6b39 15be
00000250: 7fe3 54bd c16f 0abe 21c9 edbd 6aff 4d3e
00000260: efad 8f3e bbc7 09be 5c0d 22be e19e 9d3d
00000270: 3699 a73d 4300 24bd b534 963e 0aa4 51bb
00000280: d79d 08be cb59 223e d260 9abe 4c0d 1ebe
00000290: e1c4 bdbd d50f f3bd 211c 303e 308c f83d
000002a0: 4d4e 2e3e 671c fb3d bd53 343d 4fad 5abe
000002b0: 8630 9dbe 14eb 983e eb4c adbe d891 32be
000002c0: a572 9f3d 603b 8b3e 5bd4 99bd a950 643e
000002d0: 7ac6 573e 11e1 843d bc4a b1bd cdbb e23c
000002e0: b2f5 2abe d3b8 80be 15be 523e 8793 01be
000002f0: f1ef 43be 1e4d a7be fe45 bdbc 7fed 103d
00000300: 2d8f 30be ae33 9cbd 32d4 533e 5a2b 5d3e
00000310: d743 583e 5770 38bd afcf d4be b219 563e
00000320: 8848 e5b9 e5a1 8c3e 07e3 ae3d 67ed 313d
00000330: ef78 0e3e 2ebf 80be 3ebc 0dbe 2fc9 b3be
00000340: 64f5 c53e b73d 313d f9fb 55bb 5db7 c3bc
00000350: 3bee 083e c558 8cbe b0f7 803e 6837 953a
00000360: 4b0b 6ebd 9fe3 a4be 5138 87be e71e 31be
00000370: ea0e 30be 4c53 473e 7a62 69be 7e84 8fbe
00000380: 3edb 71be 4252 cbbd 7159 f6bd e4c7 da3c
00000390: 507b bbbd 9918 113e de2d 69bd 6f70 efbd
000003a0: 76c2 acbe 2943 4b3e 005f 1ebe a6f3 8bbc
000003b0: c4e7 92be 8efc 603e 88ca 8c3d bfd2 c13b
000003c0: 1343 1c3e febd 89be 637a 653e 5702 82be
000003d0: 2d88 343e 43e4 1b3d 2ee6 563c 2db6 683e
000003e0: e80e b6be ba25 8bbe 9bd2 8dbd 9b46 613e
000003f0: ac00 683d cc3e 4fbd dfc6 52be 33b3 823e

convs.1.lin_l.weight f4 [95, 95]
0.1180877 0.12951581 -0.027877342 0.019702004 -0.087312005 -0.14071102 -0.12642454 0.080896884
0.1711522 -0.034656473 0.07547074 -0.06250148 0.03269817 0.014054334 0.030042492 0.2107144
-0.06415476 -0.033319 -0.31522292 0.11891485 -0.039931417 0.020780344 0.0606936 0.06450061
0.11616143 0.01101987 0.032025363 -0.06968508 -0.1209035 0.12761563 -0.010649674 0.073453
0.045701243 -0.030067438 -0.37578344 -0.37214994 -0.034179103 0.09769711 0.008481262 -0.0400029
-0.06584138 -0.0897475 -0.017646628 0.23092194 -0.022161564 0.07501178 -0.064124174 -0.006809506
-0.103876844 -0.14813088 0.10304448 -0.055534046 0.0043046656 0.020520061 -0.10030618 -0.07649471
-0.032911547 0.0206218 -0.31921917 -0.050002296 0.064909615 0.024337985 0.0021093164 -0.2540853
0.020181524 0.12145975 -0.027385777 0.09130807 0.19531402 -0.02421844 0.052861925 -0.1791509
-0.024084866 -0.10100361 0.13617253 0.14277251 0.10497636 0.046041 -0.09910349 0.030162659
0.20992276 0.0028285526 -0.056321144 -0.07374171 -0.049279224 -0.122445785 -0.076521 0.1235604
0.08295929 -0.09340204 -0.043816496 0.32577497 0.0039216285 -0.008106918 0.09406171 0.05084754
0.027577292 -0.22806092 -0.04673374 -0.13490023 -0.17588672 0.049585253 0.049245663 -0.054518897
0.018849958 0.31621122 -0.052369744 0.101481885 0.05790812 0.057326563 0.09609447 0.015847692
0.03659243 -0.099229164 0.010301585 0.041270513 -0.19771558 0.07594223 -0.027354445 -0.008527503
0.03383859 -0.20444542 -0.10235794 0.10488954 -0.13766691 -0.069312215 -0.3442831 0.0049501183
0.026739035 0.11807087 -0.36188272 0.039609373 -0.004660561 0.0057581365 -0.23570329 -0.01220542
-0.050880942 0.024022615 -0.13401265 -0.013970222 0.09087844 -0.09990568 0.47327498 -0.12252233
-0.20740741 -0.09972062 -0.09791825 0.14969368 -0.09515477 0.047140826 -0.14240775 0.013639171
0.036770035 -0.2990976 -0.094937526 -0.13267486 0.065796785 -0.0044926596 -0.38315144 -0.03592821
-0.018580796 0.07351917 -0.1773222 0.13174014 -0.07002077 -0.0060314676 -0.17107205 -0.09703805
-0.058062118 -0.030311866 -0.094423786 -0.018973524 -0.0032867698 0.0075753494 -0.13893959 0.12874295
-0.17625034 0.11593205 0.025025804 -0.119027466 0.012403341 -0.044617467 -0.09090718 0.14154737
-0.13776936 0.027733188 0.16310164 -0.017196259 0.16983546 0.009428448 -0.034681983 0.046343
0.027455816 0.08839519 -0.0707107 0.02943818 0.1842045 -0.11971513 -0.08606371 0.0016405046
0.29899082 -0.011596268 -0.07029765 -0.050447922 -0.08900606 0.14480275 0.059495237 -0.08198275
0.033806562 -0.19353959 -0.04647316 -0.15934506 0.038821325 -0.07928946 0.06681988 -0.027754884
-0.21932954 0.08587581 0.48207366 -0.048853565 -0.009723412 -0.39939445 -0.009663194 0.03097644
0.02286127 -0.09715315 -0.048975576 -0.054608755 -0.13208824 -0.1881822 -0.05560929 -0.31624055
0.1040645 0.10375171 0.0318813 0.092655785 -0.076391175 0.15753657 0.032037698 -0.16367406
0.3703179 -0.046520267 0.12473925 -0.08528447 -0.10151917 0.0076347035 -0.08148621 0.06487841
-0.14635952 0.028661428 -0.26336506 0.009059554 -0.014227276 -0.6363457 -0.09611904 -0.15878996
00000000: f7d7 f13d cb9f 043e 065f e4bc 1966 a13c
00000010: a3d0 b2bd 8d16 10be 6f75 01be 44ad a53d
00000020: 8642 2f3e f2f3 0dbd 6790 9a3d c700 80bd
00000030: 84ee 053d 2644 663c ac1b f63c 84c5 573e
00000040: 9263 83bd 8179 08bd e664 a1be a189 f33d
00000050: 208f 23bd 8a3b aa3c da99 783d e518 843d
00000060: 0be6 ed3d af8c 343c 072d 033d 0db7 8ebd
00000070: 419c f7bd acad 023e f87b 2ebc 876e 963d
00000080: 3a31 3b3d fd4f f6bc b066 c0be 708a bebe
00000090: 63ff 0bbd 6c15 c83d fef4 0a3c 15da 23bd
000000a0: d8d7 86bd 8acd b7bd a98f 90bc cd76 6c3e
000000b0: 2b8c b5bc c79f 993d 8953 83bd 4722 dfbb
000000c0: 62bd d4bd 9faf 17be fc08 d33d ab77 63bd
000000d0: 270e 8d3b b019 a83c 546d cdbd 42a9 9cbd
000000e0: 42ce 06bd 0def a83c b270 a3be 35cf 4cbd
000000f0: 55ef 843d 7460 c73c 753c 0a3b 7817 82be
00000100: b953 a53c e4bf f83d 2358 e0bc baff ba3d
00000110: 6600 483e c065 c6bc bf85 583d 5573 37be
00000120: a04d c5bc fbda cebd d070 0b3e f532 123e
00000130: d9fd d63d 7d95 3c3d c5f6 cabd ae17 f73c
00000140: fef5 563e 3d5f 393b 00b1 66bd e505 97bd
00000150: 03d9 49bd dbc4 fabd 0bb7 9cbd 3c0d fd3d
00000160: 8fe6 a93d 9249 bfbd ed78 33bd facb a63e
00000170: 0181 803b e1d2 04bc 6da3 c03d 8345 503d
00000180: c6e9 e13c cd88 69be e16b 3fbd 4923 0abe
00000190: a61b 34be e819 4b3d d2b5 493d 354f 5fbd
000001a0: 3a6b 9a3c 70e6 a13e a881 56bd bcd5 cf3d
000001b0: 1131 6d3d 42cf 6a3d 2dcd c43d 05d3 813c
000001c0: f2e1 153d a938 cbbd fbc7 283c 450b 293d
000001d0: f475 4abe 9a87 9b3d 6e16 e0bc f1b6 0bbc
000001e0: 559a 0a3d 245a 51be 0aa1 d1bd 54d0 d63d
000001f0: 8ef8 0cbe 90f3 8dbd e045 b0be 9a34 a23b
00000200: d20b db3c 24cf f13d b148 b9be 703d 223d
00000210: 9fb7 98bb c0ae bc3b 345c 71be 3ef9 47bc
00000220: 8968 50bd 13cb c43c 9d3a 09be 5ce3 64bc
00000230: 7a1e ba3d 599b ccbd 1951 f23e fdec fabd
00000240: 9c62 54be 533a ccbd 5d89 c8bd 4d49 193e
00000250: 81e0 c2bd bd16 413d 56d3 11be d476 5f3c
00000260: 2d9c 163d 5223 99be 9b6e c2bd ebdb 07be
00000270: 77c0 863d 2937 93bb 6d2c c4be 7529 13bd
00000280: c136 98bc 3891 963d f393 35be e3e6 063e
00000290: 0d67 8fbd 9ea3 c5bb 832d 2fbe e3bb c6bd
000002a0: 8bd2 6dbd 9750 f8bc 4261 c1bd 5d6e 9bbc
000002b0: d966 57bb a33a f83b 2e46 0ebe 31d5 033e
000002c0: f87a 34be c86d ed3d ea02 cd3c acc4 f3bd
000002d0: 6237 4b3c cec0 36bd 8b2d babd cbf1 103e
000002e0: 6913 0dbe b630 e33c 1e04 273e 2bdf 8cbc
000002f0: 59e9 2d3e c779 1a3c b20e 0ebd 28d2 3d3d
00000300: 05eb e03c 8a08 b53d c5d0 90bd 5728 f13c
00000310: 1ba0 3c3e 352d f5bd 2c42 b0bd 3306 d73a
00000320: 5315 993e 46fe 3dbc 37f8 8fbd 7ba2 4ebd
00000330: cf48 b6bd 2c47 143e 47b1 733d 92e6 a7bd
00000340: c078 0a3d 3e2f 46be a45a 3ebd 5a2b 23be
00000350: 1c03 1f3d 8362 a2bd dcd8 883d 365e e3bc
00000360: ec97 60be a8df af3d 5cd2 f63e ad1a 48bd
00000370: f24e 1fbc 6e7d ccbe 6052 1ebc 4ec2 fd3c
00000380: 8f47 bb3c 3bf8 c6bd 9d9a 48bd 6ead 5fbd
00000390: 2442 07be d6b2 40be 91c6 63bd 48ea a1be
000003a0: c51f d53d c77b d43d f795 023d 51c2 bd3d
000003b0: fa72 9cbd 4451 213e f639 033d 2c9a 27be
000003c0: 4f9a bd3e 098c 3ebd 4b77 ff3d a0a9 aebd
000003d0: 48e9 cfbd 892c fa3b 3ee2 a6bd f9de 843d
000003e0: 45df 15be 5fcb ea3c c9d7 86be 866e 143c
000003f0: 8519 69bc 8de7 22bf 0fda c4bd d699 22be

convs.1.lin_l.bias f4 [95]
0.0049115047 0.059051123 0.021077564 -0.0063851057 0.054502893 -0.097112305 0.0652314 0.03812347
-0.04350908 -0.10485768 -0.13540626 -0.13678174 -0.1153101 0.0011620086 0.01125314 -0.0678486
0.045387436 -0.04372313 0.05492472 -0.034459263 0.067551896 -0.08964446 -0.11909754 -0.061604425
-0.0046582725 -0.035972174 -0.09085947 -0.05985719 -0.08624488 -0.054256096 -0.02107569 -0.10066044
0.026480472 -0.08085214 -0.09004404 0.028924761 0.016496902 -0.073096566 0.048703395 -0.09205252
0.03009418 -0.11830369 -0.13793671 0.011918833 -0.14653121 0.019808784 0.030225534 -0.11469813
-0.07313308 0.026197407 0.010185529 -0.029468758 -0.062304404 -0.1358716 0.009203787 -0.10395455
-0.035354618 -0.11127747 -0.10751566 0.057310883 0.03540805 -0.017869558 -0.011241191 0.05260518
-0.039937608 -0.09927586 0.03623711 -0.108524814 -0.087359644 0.0385612 -0.02602333 -0.030027479
0.0610713 -0.058195718 -0.0320134 -0.04250356 -0.030377865 -0.17811023 0.068372495 -0.015115995
-0.117955 -0.005613735 -0.01633511 -0.030498466 -0.11429795 0.03248069 -0.012554031 0.00029227533
0.040200885 -0.05707943 0.033074863 0.047061767 -0.001993815 0.029967532 -0.10127486
00000000: b0f0 a03b 97df 713d dbaa ac3c 263a d1bb
00000010: 6d3e 5f3d d1e2 c6bd 0a98 853d 5b27 1c3d
00000020: 9436 32bd a0bf d6bd f0a7 0abe 8310 0cbe
00000030: b427 ecbd 8a4e 983a 175f 383c 35f4 8abd
00000040: 2de8 393d 0617 33bd bef8 603d 2825 0dbd
00000050: a658 8a3d 8497 b7bd 69e9 f3bd ec54 7cbd
00000060: 6ca4 98bb 8f57 13bd 8814 babd d02c 75bd
00000070: 28a1 b0bd a43b 5ebd eda6 acbc 1027 cebd
00000080: 93ed d83c cf95 a5bd 0269 b8bd 9ff3 ec3c
00000090: 8324 873c a7b3 95bd 367d 473d 0886 bcbd
000000a0: 1288 f63c 3449 f2bd 483f 0dbe 3547 433c
000000b0: 470c 16be 0846 a23c 8a9b f73c dae6 eabd
000000c0: ccc6 95bd f29b d63c 34e1 263c 7768 f1bc
000000d0: e732 7fbd ed21 0bbe 7bcb 163c 20e6 d4bd
000000e0: 01d0 10bd 71e5 e3bd 2c31 dcbd d1be 6a3d
000000f0: 0808 113d 2e63 92bc f92c 38bc 8778 573d
00000100: 9e95 23bd 2451 cbbd 5d6d 143d 4242 debd
00000110: 9de9 b2bd 59f2 1d3d e12e d5bc 30fc f5bc
00000120: e625 7a3d a25e 6ebd 7c20 03bd 3718 2ebd
00000130: 00db f8bc 8762 36be e106 8c3d 14a9 77bc
00000140: 6492 f1bd 6cf3 b7bb 35d1 85bc ebd7 f9bc
00000150: 0b15 eabd 790a 053d 6caf 4dbc 883c 9939
00000160: afa9 243d 1fcc 69bd 8279 073d d7c3 403d
00000170: aaaa 02bb 787e f53c 3269 cfbd

convs.1.lin_r.weight f4 [95, 95]
0.05915593 0.056564406 0.012490137 0.0273025 -0.0043572458 -0.011333138 -0.071214594 -0.050137155
0.03075084 0.071577005 -0.055357542 0.051846806 -0.046468776 0.02184976 -0.06786447 0.057904847
0.080887586 -0.034634642 -0.1635399 0.09241344 -0.04103021 0.032075386 0.080152854 -0.096535325
-0.030188173 -0.09745301 0.06990181 -0.032645956 -0.21897155 0.14685822 0.030072734 0.058231585
0.014951667 -0.03484442 -0.1405548 -0.05109937 0.033955466 0.017148692 0.06941255 -0.024448277
0.036855772 0.01045806 -0.10879607 -0.11639301 -0.028413508 0.04863927 0.051540058 0.15644717
0.06612636 -0.08485208 -0.16515648 -0.061527222 -0.08367526 0.029111113 -0.011986589 -0.011275471
0.010873103 -0.030505436 -0.21553884 -0.089336075 0.06640762 -0.02093258 -0.016925463 -0.18896055
-0.018865267 0.019324325 0.00068363023 0.012708361 0.026787478 0.0055452506 0.08915154 -0.06372537
-0.033173963 -0.08277158 -0.020953622 -0.04658747 0.03849555 0.05584156 -0.025123358 -0.06472134
0.16362104 -0.05811001 -0.091821484 -0.009033552 -0.023930285 -0.08958556 -0.025148956 -0.0040346906
-0.07935414 0.040558424 0.04066558 0.07903149 0.058983706 0.021937378 0.007708363 0.025205974
-0.0106511675 -0.089244574 0.08048404 -0.049692556 -0.1541312 0.018457418 -0.12492892 0.10280158
-0.06297729 0.18569499 0.045646552 0.02814783 -0.016499063 0.043291908 0.19406366 0.0072646164
0.0023623677 -0.043011945 -0.104855165 0.034545943 -0.038187943 -0.02847446 0.09749389 -0.11366884
0.08260185 -0.09376889 -0.04709759 -0.06544676 -0.03408168 -0.019843843 -0.04234415 0.0058708885
0.046212655 -0.03690179 -0.17589083 0.036300708 0.024830937 0.0006985679 -0.04338239 -0.03810442
-0.09470948 -0.01358021 0.07377728 -0.06495549 0.0823925 -0.05276983 0.110715605 -0.08588181
-0.21384752 -0.022040574 -0.1784115 0.15626436 -0.09033884 -0.006474973 -0.04021653 -0.047691952
0.05506256 -0.11921172 0.121828906 -0.090331525 -0.08904068 0.08794377 -0.041461654 -0.0053064236
-0.07571258 0.079855345 0.008832067 -0.2738712 0.10228715 -0.06038613 -0.26692298 -0.08199227
-0.04265281 -0.10423594 -0.124930635 -0.0019269307 -0.082418434 -0.007715512 -0.013830052 -0.10032263
-0.08101717 0.056214146 -0.10854945 -0.04071271 0.009805259 0.07565471 0.040939093 0.04071371
-0.076654546 0.050729558 0.08219927 0.04867211 0.04884267 -0.05379141 0.09520075 -0.11020769
-0.05718723 0.07119935 0.023056278 -0.07117204 0.20325652 -0.054454874 -0.075095445 0.016054027
0.13987379 0.02963614 0.013541932 -0.083212174 -0.03089528 -0.2472075 -0.051105432 -0.026437366
-0.039282516 -0.053164065 -0.011333414 -0.05935513 -0.008612437 0.041759674 0.046744656 0.0872251
0.08480233 0.061646666 -0.034840174 -0.07203897 -0.10223172 -0.053037968 -0.16878635 -0.049393166
0.11126895 0.037395637 -0.0020975627 0.08115995 0.06571659 0.023879372 0.07112293 -0.014072065
-0.043188263 -0.060254734 -0.007818902 -0.05205324 -0.080382966 -0.06169485 0.02698711 -0.073899075
0.34556535 0.07268903 -0.07476698 0.062095296 -0.06314565 0.032263957 -0.077627406 -0.037854515
0.0031234145 -0.057748213 -0.12765172 0.021924442 -0.06990694 -0.07766602 0.023300279 -0.09605287
00000000: 7d4d 723d 14b0 673d 6ea3 4c3c 7ea9 df3c
00000010: 3ac7 8ebb a0ae 39bc f5d8 91bd 9e5c 4dbd
00000020: 30e9 fb3c f796 923d 97be 62bd 515d 543d
00000030: 0b56 3ebd 45fe b23c 87fc 8abd a22d 6d3d
00000040: 64a8 a53d 0edd 0dbd 0177 27be 4243 bd3d
00000050: 4b0f 28bd 7b61 033d 2e27 a43d 50b4 c5bd
00000060: 304d f7bc 7295 c7bd ae28 8f3d c4b7 05bd
00000070: 143a 60be 0062 163e 185b f63c 3e84 6e3d
00000080: d6f7 743c 06b9 0ebd 99ed 0fbe 934d 51bd
00000090: e314 0b3d 6a7b 8c3c 2b28 8e3d c147 c8bc
000000a0: 14f6 163d 4858 2b3c 79d0 debd 755f eebd
000000b0: 72c3 e8bc f939 473d ab1b 533d b033 203e
000000c0: 426d 873d edc6 adbd c81e 29be f803 7cbd
000000d0: ef5d abbd 6e7a ee3c 6663 44bc c1bc 38bc
000000e0: 1925 323c 89e6 f9bc 37b6 5cbe d5f5 b6bd
000000f0: b800 883d cd7a abbc 45a7 8abc e07e 41be
00000100: 558b 9abc 0c4e 9e3c a635 333a bb36 503c
00000110: 6a71 db3c efb4 b53b 1595 b63d 7282 82bd
00000120: 6ce1 07bd 2584 a9bd eea6 abbc 81d2 3ebd
00000130: 83ad 1d3d 1fba 643d 80cf cdbc 9f8c 84bd
00000140: 468c 273e c304 6ebd e70c bcbd 7701 14bc
00000150: 7209 c4bc a278 b7bd 2f05 cebc 7035 84bb
00000160: 6c84 a2bd 9720 263d f490 263d 43db a13d
00000170: e698 713d 04b6 b33c 6f96 fc3b c27c ce3c
00000180: 3c82 2ebc dcc5 b6bd d1d4 a43d 6c8a 4bbd
00000190: 92d4 1dbe 0334 973c bcda ffbd a389 d23d
000001a0: 3dfa 80bd d426 3e3e e1f7 3a3d 4796 e63c
000001b0: 0b29 87bc db52 313d a0b8 463e 050c ee3b
000001c0: f4d1 1a3b 4b2d 30bd 4ebe d6bd 0c80 0d3d
000001d0: f66a 1cbd 4543 e9bc e0aa c73d 35cb e8bd
000001e0: 292b a93d e709 c0bd 67e9 40bd f308 86bd
000001f0: 3b99 0bbd 8e8f a2bc 0f71 2dbd 9560 c03b
00000200: 7b49 3d3d 5526 17bd ba1c 34be 0db0 143d
00000210: 406a cb3c 1920 373a bcb1 31bd 6113 1cbd
00000220: 0bf7 c1bd 877f 5ebc 8b18 973d 6207 85bd
00000230: 66bd a83d 2d25 58bd ddbe e23d cde2 afbd
00000240: d8fa 5abe 6f8e b4bc 81b1 36be c403 203e
00000250: 9203 b9bd 032c d4bb 17ba 24bd a358 43bd
00000260: 4789 613d 4625 f4bd 6f81 f93d bcff b8bd
00000270: f65a b6bd dd1b b43d b2d3 29bd 82e1 adbb
00000280: 320f 9bbd 338b a33d 60b4 103c d938 8cbe
00000290: ed7b d13d 7257 77bd 21aa 88be 90eb a7bd
000002a0: b7b4 2ebd a779 d5bd a2db ffbd 1191 fcba
000002b0: ffca a8bd 68d2 fcbb 7197 62bc f375 cdbd
000002c0: 54ec a5bd ce40 663d 2d4f debd 5fc2 26bd
000002d0: 3da6 203c dbf0 9a3d c0af 273d 6bc3 263d
000002e0: 0ffd 9cbd ccc9 4f3d 1758 a83d 685c 473d
000002f0: 400f 483d 6254 5cbd 9cf8 c23d 92b4 e1bd
00000300: 283d 6abd f7d0 913d 85e0 bc3c a6c2 91bd
00000310: 7a22 503e 130c 5fbd a4cb 99bd bc83 833c
00000320: 133b 0f3e 7ec7 f23c fbde 5d3c 256b aabd
00000330: 1918 fdbc f623 7dbe ee53 51bd 2d93 d8bc
00000340: b4e6 20bd 90c2 59bd c9af 39bc 5d1e 73bd
00000350: 2e1b 0dbc 310c 2b3d 5377 3f3d 13a3 b23d
00000360: d8ac ad3d 3781 7c3d 92b4 0ebd 2b89 93bd
00000370: dd5e d1bd 573e 59bd 54d6 2cbe 7d50 4abd
00000380: fae0 e33d 2b2c 193d 4377 09bb 3037 a63d
00000390: 6b96 863d ac9e c33c e6a8 913d 858e 66bc
000003a0: 2de6 30bd abcd 76bd da1a 00bc c735 55bd
000003b0: d39f a4bd bdb3 7cbd 1214 dd3c 6658 97bd
000003c0: f1ed b03e fcdd 943d 6e1f 99bd a357 7e3d
000003d0: 8252 81bd 3627 043d 1efb 9ebd 560d 1bbd
000003e0: 33b2 4c3b 6489 6cbd 22b7 02be e39a b33c
000003f0: 5f2b 8fbd 5d0f 9fbd 3ae0 be3c 5eb7 c4bd

convs.2.lin_l.weight f4 [95, 95]
-0.06723885 -0.013570143 0.06790451 -0.13062409 0.010197954 -0.05428091 -0.08184732 -0.074268065
0.04800091 0.021414483 -0.0398348 0.067434646 -0.06572175 0.04127622 0.068345204 -0.084286034
-0.052993797 -0.12701967 -0.13578828 -0.032472834 0.06780538 0.08732863 0.00074488006 -0.012849812
-0.06701099 -0.089121304 0.07146738 -0.066861086 0.019349486 0.022504847 -0.112042844 0.06132937
-0.104527704 0.0736187 0.09601682 -0.043121323 -0.060123153 -0.07049155 0.06276787 -0.007962706
-0.10215013 -0.0767572 -0.031630486 0.056831244 -0.008791007 -0.02869707 0.07377088 0.014177338
0.058852654 0.069972485 -0.077613845 -0.058156762 -0.12070792 0.070289165 -0.07913992 0.026913686
-0.039767954 -0.04184822 0.045820832 0.0011512793 -0.12861653 -0.022774827 -0.052593935 0.028040027
0.09317105 -0.08375112 0.06689994 0.0037031195 -0.026071724 0.07492825 0.04140669 -0.040058024
0.054111406 -0.05923688 -0.11693712 -0.11508073 0.04597733 -0.12593701 -0.048985362 0.11967326
0.055423215 0.00708922 0.0050842264 0.009263606 -0.022433665 0.097390026 -0.04514705 0.016566338
0.035012823 0.05650452 -0.094245076 -0.015708068 0.05648601 -0.08334561 0.033146773 -0.27619365
-0.13434303 -0.106628224 -0.2129991 -0.18405108 0.009861132 -0.18970962 -0.04289891 0.23071894
0.036763694 0.15364389 0.026627913 0.06501041 -0.16698211 -0.23634906 0.024758961 -0.23557027
0.049938392 -0.21569045 0.082358785 -0.038578425 -0.050036654 -0.057120636 -0.025072908 0.4765905
-0.0023765622 -0.030826828 0.0713538 0.05459485 -0.048141167 0.036904648 0.056676697 -0.3320518
0.13623776 -0.03695139 0.07400015 -0.2543344 -0.14219175 -0.26924002 -0.06494463 -0.10985776
-0.034623157 -0.14053792 0.053585052 0.10612789 -0.040715292 -0.097404435 0.017392859 0.03755945
0.005869815 -0.015574876 -0.07819783 0.14226319 0.119794756 0.042605262 0.031463422 -0.04060203
0.07889031 0.056499217 0.16041052 -0.19638383 -0.02484566 -0.3732157 -0.106311955 0.03732618
0.0048519545 -0.24199511 0.13519076 -0.023968618 0.045323335 0.17547996 0.05620921 -0.034530517
0.27972707 0.030790772 -0.031961706 -0.26736966 -0.048360035 -0.22607428 0.14379871 -0.049003426
-0.024376927 0.13535044 0.0987332 0.04844258 -0.16668603 0.023183402 -0.06304731 -0.11372877
0.15382163 0.042934824 -0.019998465 -0.23994792 -0.22525913 0.11777197 -0.0067005046 0.024296522
-0.17096947 -0.10903512 -0.06413975 -0.045341782 -0.09403229 0.0554147 -0.079646975 -0.020841377
-0.05171063 -0.033604182 0.025949057 -0.01491415 0.05381539 0.08280856 0.012139036 -0.11246749
-0.15169665 -0.08522558 -0.09840981 -0.102055006 -0.08293553 0.028058706 -0.093316525 -0.00089166034
0.09735923 -0.097480945 -0.044178896 0.027247304 -0.039160665 -0.034977295 -0.0040990235 -0.09182684
-0.03860984 -0.036588162 -0.11329626 0.024364723 -0.06295328 0.015213193 -0.09466546 0.06247564
-0.04372432 0.057024553 -0.07292444 -0.03008007 -0.079058535 -0.052674014 0.022031747 0.03111611
-0.117692955 -0.19021018 -0.0075803725 -0.035864387 -0.17834921 0.056563962 0.057176106 0.08320588
-0.07629975 -0.0013287641 -0.015918877 -0.049891658 -0.14116628 -0.0098659005 -0.066220306 0.025111381
00000000: 86b4 89bd 4e55 5ebc 8511 8b3d 52c2 05be
00000010: 5215 273c a955 5ebd 919f a7bd db19 98bd
00000020: 9a9c 443d 6d6d af3c d129 23bd 2d1b 8a3d
00000030: 2099 86bd 4111 293d 92f8 8b3d 289e acbd
00000040: 0610 59bd 7211 02be 150c 0bbe 3c02 05bd
00000050: 8cdd 8a3d 5ad9 b23d 0e44 433a 0588 52bc
00000060: 0f3d 89bd 3b85 b6bd 7d5d 923d 77ee 88bd
00000070: d082 9e3c 165c b83c b876 e5bd 8134 7b3d
00000080: 9f12 d6bd 67c5 963d 77a4 c43d fc9f 30bd
00000090: b243 76bd e05d 90bd 718c 803d 0276 02bc
000000a0: 1634 d1bd e132 9dbd f88e 01bd e1c7 683d
000000b0: 2808 10bc 1e16 ebbc 3015 973d 1148 683c
000000c0: 7b0f 713d bc4d 8f3d 02f4 9ebd c935 6ebd
000000d0: b735 f7bd c4f3 8f3d 1c14 a2bd 177a dc3c
000000e0: b9e3 22bd 0a69 2bbd a0ae 3b3d 86e6 963a
000000f0: 0db4 03be 4692 babc bd6c 57bd 33b4 e53c
00000100: 77d0 be3d b585 abbd d602 893d 09b0 723b
00000110: 5e94 d5bc fb73 993d 109a 293d e213 24bd
00000120: eca3 5d3d 5fa2 72bd bb7c efbd 72af ebbd
00000130: ba52 3c3d a2f5 00be e0a4 48bd 4117 f53d
00000140: 7403 633d b04c e83b 9599 a63b 61c6 173c
00000150: cec6 b7bc 6c74 c73d 1dec 38bd 21b6 873c
00000160: 9b69 0f3d 4971 673d 9003 c1bd 35ae 80bc
00000170: e05d 673d 1ab1 aabd e9c4 073d 4169 8dbe
00000180: 3891 09be e65f dabd 701c 5abe e377 3cbe
00000190: 9690 213c 3d43 42be c4b6 2fbd 9641 6c3e
000001a0: 8795 163d d354 1d3e c822 da3c 2e24 853d
000001b0: 5cfd 2abe 7d05 72be 4ed3 ca3c 5539 71be
000001c0: 338c 4c3d f5dd 5cbe b9ab a83d 6904 1ebd
000001d0: 3cf3 4cbd 54f7 69bd b365 cdbc ac03 f43e
000001e0: 19c0 1bbb 8b88 fcbc f121 923d d99e 5f3d
000001f0: ac2f 45bd 5429 173d d325 683d b202 aabe
00000200: e981 0b3e 575a 17bd 648d 973d 1e38 82be
00000210: b79a 11be d4d9 89be b101 85bd 1bfd e0bd
00000220: 03d1 0dbd 2ce9 0fbe 007c 5b3d 9459 d93d
00000230: 14c5 26bd fa7b c7bd 787b 8e3c f0d7 193d
00000240: 9457 c03b c42d 7fbc 2f26 a0bd 71ad 113e
00000250: f456 f53d db82 2e3d cadf 003d 504e 26bd
00000260: 3e91 a13d b96b 673d a842 243e d818 49be
00000270: 2089 cbbc 2116 bfbe 15ba d9bd 56e3 183d
00000280: 25fd 9e3b 91cd 77be 726f 0a3e d659 c4bc
00000290: f6a4 393d 05b1 333e a13b 663d df6f 0dbd
000002a0: 6338 8f3e ee3c fc3c 47ea 02bd ade4 88be
000002b0: 2c15 46bd 0480 67be f83f 133e d1b7 48bd
000002c0: 1fb2 c7bc 4e99 0a3e a234 ca3d ba6b 463d
000002d0: beaf 2abe 1eeb bd3c f31e 81bd a1ea e8bd
000002e0: 6b83 1d3e 6ddc 2f3d d2d3 a3bc e8b4 75be
000002f0: 54aa 66be 6e32 f13d e88f dbbb 8009 c73c
00000300: 9f12 2fbe ce4d dfbd b45b 83bd 4eb8 39bd
00000310: 0094 c0bd 86fa 623d f41d a3bd 89bb aabc
00000320: 87ce 53bd 8aa4 09bd 1e93 d43c 7b5a 74bc
00000330: 876d 5c3d 8997 a93d cfe2 463c 5b55 e6bd
00000340: 5e56 1bbe c08a aebd 158b c9bd 3702 d1bd
00000350: 1ada a9bd 5fdb e53c bc1c bfbd 50be 69ba
00000360: 4764 c73d 17a4 c7bd eef4 34bd bd35 df3c
00000370: ef66 20bd 5a44 0fbd 1a51 86bb b60f bcbd
00000380: 5a25 1ebd 78dd 15bd df07 e8bd 8798 c73c
00000390: a6ed 80bd c240 793c f7df c1bd 75e6 7f3d
000003a0: 4618 33bd 9492 693d 6959 95bd 7b6a f6bc
000003b0: 71e9 a1bd b5c0 57bd ec7b b43c 36e7 fe3c
000003c0: 0109 f1bd 75c6 42be c664 f8bb 89e6 12bd
000003d0: 2da1 36be 9daf 673d 7e31 6a3d d867 aa3d
000003e0: 0b43 9cbd ed29 aeba 4e68 82bc 325b 4cbd
000003f0: e58d 10be 96a4 21bc 839e 87bd 62b6 cd3c

convs.2.lin_l.bias f4 [95]
-0.123602144 0.0412743 -0.007847197 -0.080321014 0.0083942795 0.0047893 0.021447543 -0.03772151
0.023558447 0.012686181 -0.018901477 -0.09002833 0.010200449 -0.0034445943 -0.018166084 -0.109737664
-0.09659312 0.040053826 0.01722885 -0.0422415 -0.1333563 -0.038548812 0.0438145 0.013447125
-0.06623544 -0.021804761 -0.026725527 -0.10804817 -0.0035086903 0.03407347 -0.017147677 -0.05390803
0.012223992 0.0071229935 0.019373836 0.023259696 -0.031493235 0.0054969825 -0.0366685 0.020450262
-0.0031485416 -0.009407517 0.043603666 -0.038091317 0.0291666 -0.041099142 0.0020009335 -0.01279254
0.048743404 0.058498543 0.049536448 -0.03066928 -0.07006858 -0.032515567 -0.11151521 -0.041785285
-0.044975508 0.021887783 -0.056371003 -0.08126369 0.021622837 -0.0042197597 -0.013227868 -0.08882601
0.0092871245 0.053730458 0.029818047 -0.11857535 0.04020847 0.036238216 -0.08117127 -0.023592312
0.021705024 0.03339385 -0.02664522 0.04049312 0.020121727 0.02425159 -0.102350265 0.025595479
0.04083613 0.03775243 0.027080672 -0.079322115 -0.039014854 -0.047628928 -0.10506982 -0.009529569
0.023459949 0.036462452 -0.027206974 0.016514119 -0.01405589 -0.07901366 -0.07706991
00000000: 1f23 fdbd 3e0f 293d 8891 00bc 587f a4bd
00000010: 2988 093c 8fef 9c3b c2b2 af3c df81 1abd
00000020: a5fd c03c b3d9 4f3c 45d7 9abc c660 b8bd
00000030: c91f 273c b4be 61bb 0ad1 94bc 24be e0bd
00000040: 9dd2 c5bd 7b0f 243d 8423 8d3c 6c05 2dbd
00000050: 8e8e 08be 5ce5 1dbd d576 333d 5551 5c3c
00000060: 72a6 87bd e69f b2bc 7eef dabc 5c48 ddbd
00000070: 0ef2 65bb 9f90 0b3d 4979 8cbc abce 5cbd
00000080: 2347 483c 0068 e93b e1b5 9e3c 1e8b be3c
00000090: 0dff 00bd 0820 b43b b631 16bd 4f87 a73c
000000a0: c357 4ebb fc21 1abc c299 323d a405 1cbd
000000b0: cbee ee3c 9357 28bd 1822 033b cd97 51bc
000000c0: 2aa7 473d 2b9c 6f3d bbe6 4a3d 243e fbbc
000000d0: 1e80 8fbd 0b2f 05bd 1662 e4bd 0c27 2bbd
000000e0: 3d38 38bd 024e b33c 48e5 66bd 946d a6bd
000000f0: 6022 b13c e945 8abb b3b9 58bc 69ea b5bd
00000100: 0629 183c 7814 5c3d fa44 f43c a2d7 f2bd
00000110: a3b1 243d 866e 143d 1f3d a6bd aa44 c1bc
00000120: bcce b13c fdc7 083d 1447 dabc 1ddc 253d
00000130: 52d6 a43c 45ab c63c 049d d1bd 9cad d13c
00000140: c943 273d 4ba2 1a3d 49d8 dd3c a273 a2bd
00000150: 0ace 1fbd 8d16 43bd d92e d7bd e921 1cbc
00000160: 142f c03c a759 153d 29e1 debc 9e48 873c
00000170: ad4a 66bc ead1 a1bd d4d6 9dbd

convs.2.lin_r.weight f4 [95, 95]
0.04083582 0.00072001864 0.020641401 -0.06714286 -0.124467924 -0.036951613 -0.05159513 0.014220749
-0.036015827 0.078875504 -0.061166193 -0.022662187 -0.0130756395 0.036872037 0.05397913 -0.031226765
0.06859616 0.075444646 -0.096334785 -0.06212489 -0.051864006 0.0764869 -0.105846055 -0.0038968364
0.057447318 0.000760763 -0.04437322 0.111887 -0.043851078 -0.07651372 -0.012707546 -0.057601575
-0.080399536 0.054920614 0.08840006 -0.06994009 -0.06355204 -0.094786964 -0.047908556 -0.025705326
-0.073570676 0.053596523 0.09353627 0.01610031 -0.03800472 -0.09085596 -0.09552418 -0.015998533
0.06282561 -0.08289511 0.069141895 -0.09859404 0.029941024 -0.08224995 0.011136784 -0.08098582
-0.06323758 -0.11309752 -0.07661883 -0.029882355 -0.10637158 -0.0026667449 -0.06048853 0.0072155786
0.006080751 -0.039710835 -0.008516195 -0.10733016 -0.08642904 0.04976466 -0.06179632 -0.0961855
-0.12628716 0.08778012 -0.01827277 -0.027867189 -0.045601103 -0.044079803 0.04938692 0.085606165
0.011396341 0.060673703 -0.04885961 -0.07802328 0.00961099 -0.09560035 0.03952188 0.029768644
-0.071840554 -0.07381079 0.08726964 -0.080502264 -0.12906127 0.028645054 0.04819931 -0.02947014
0.15279728 -0.03660268 -0.040234726 0.0063251914 0.04846741 0.020841928 0.003579137 -0.020344019
-0.022623697 0.043422576 0.081687815 -0.0225739 0.016319007 -0.049782332 -0.03821679 0.046341803
-0.028012127 0.0073026293 -0.021605158 -0.07471324 -0.06820335 -0.0304931 0.026201123 -0.055317964
-0.0027172498 -0.009064585 -0.020064408 0.22446844 -0.053074528 0.026312595 -0.05485222 0.013711962
-0.051312782 0.059423342 0.00237247 0.021513859 0.019240731 -0.05515211 -0.026255498 0.01472106
-0.03717206 0.016029755 -0.14568242 0.019342845 0.078625105 0.038469937 -0.033603616 0.06208955
-0.08983222 -0.0026320682 0.007686303 -0.02278162 0.06262512 -0.07651119 0.068369016 -0.056262963
0.07018049 0.05959722 -0.020711323 -0.0856013 0.03868579 -0.07422123 0.08295698 0.04493941
0.003778672 -0.076141424 -0.18348351 0.0812455 0.06769962 -0.102906354 0.04340586 0.057830922
0.020815397 0.021187035 0.05289517 -0.010812847 0.092919976 0.02881545 0.18374094 0.12651642
0.0045140637 0.06419863 0.05441147 0.008838496 0.046160344 -0.013991369 -0.0685831 0.13967538
-0.0062536234 -0.006251573 0.15341456 0.13265774 -0.043082625 6.0783517e-05 0.04822745 -0.14768793
0.062108643 0.015822982 -0.0066377674 -0.033022832 -0.06108452 0.005284936 -0.013070236 0.0050183004
0.017002275 -0.03255352 -0.065625906 -0.07544569 0.0012772125 -0.052282408 -0.026401281 -0.032177445
-0.06288063 0.055147205 -0.007224519 -0.07228261 -0.109900475 0.007983573 0.09067582 -0.03494239
-0.026554953 0.016424475 0.061736286 -0.12090821 0.06354941 -0.089812495 -0.064847246 0.029113606
0.024186786 -0.0014462649 -0.10055303 0.06730199 -0.07686056 -0.090446934 -0.01736711 0.026867531
0.0033071726 -0.040796865 0.09689264 -0.13703014 -0.0014755677 -0.069999255 0.04554889 -0.039459426
0.083068855 -0.04554244 -0.074081615 0.053783346 0.01878955 -0.11429728 0.027160425 -0.08457793
-0.09190152 -0.09842543 0.05057083 0.04118551 -0.047393404 -0.0070515326 0.017520249 -0.012813011
00000000: 7643 273d a2bf 3c3a 2818 a93c 3282 89bd
00000010: 0ae9 febd 935a 17bd 6a55 53bd 25fe 683c
00000020: 5585 13bd 7b89 a13d 6789 7abd 0da6 b9bc
00000030: 353b 56bc 2207 173d 3819 5d3d 46cf ffbc
00000040: 257c 8c3d b982 9a3d 2c4b c5bd ab76 7ebd
00000050: 5a6f 54bd 2aa5 9c3d d1c5 d8bd 1162 7fbb
00000060: e14d 6b3d f16d 473a b2c0 35bd 0325 e53d
00000070: 309d 33bd 3ab3 9cbd 5033 50bc a1ef 6bbd
00000080: 83a8 a4bd 70f4 603d 170b b53d c03c 8fbd
00000090: 9227 82bd ab1f c2bd c33b 44bd fa93 d2bc
000000a0: 39ac 96bd 0788 5b3d f28f bf3d cce4 833c
000000b0: d6aa 1bbd b112 babd 2ea2 c3bd 5b0f 83bc
000000c0: b7aa 803d e9c4 a9bd 449a 8d3d aceb c9bd
000000d0: e146 f53c a972 a8bd 0f77 363c e5db a5bd
000000e0: b482 81bd ac9f e7bd 55ea 9cbd d7cb f4bc
000000f0: 58d9 d9bd 8ec4 2ebb d2c2 77bd a970 ec3b
00000100: 0941 c73b d4a7 22bd 8387 0bbc eacf dbbd
00000110: b501 b1bd 07d6 4b3d 231e 7dbd e7fc c4bd
00000120: 6c51 01be 10c6 b33d c7b0 95bc bb49 e4bc
00000130: 39c8 3abd 068d 34bd f049 4a3d 4952 af3d
00000140: b8b7 3a3c fd84 783d 0421 48bd abca 9fbd
00000150: 6a77 1d3c 1eca c3bd b2e1 213d 5fdd f33c
00000160: 2421 93bd 1d2a 97bd 6dba b23d 5fde a4bd
00000170: a328 04be 08a9 ea3c a46c 453d 5d6b f1bc
00000180: e476 1c3e b1ec 15bd 2bcd 24bd 8d43 cf3b
00000190: c385 463d b1bc aa3c f48f 6a3b 80a8 a6bc
000001a0: 5555 b9bc dfdb 313d f14b a73d e6ec b8bc
000001b0: 70af 853c 8fe8 4bbd 3589 1cbd e7d0 3d3d
000001c0: b079 e5bc e54a ef3b 4dfd b0bc 4103 99bd
000001d0: 33ae 8bbd aacc f9bc bda3 d63c 1795 62bd
000001e0: e313 32bb a083 14bc 1d5e a4bc 0edb 653e
000001f0: ad64 59bd 838d d73c b9ac 60bd 23a8 603c
00000200: 5a2d 52bd e465 733d 717b 1b3b d53d b03c
00000210: bd9e 9d3c 2ee7 61bd c515 d7bc 9a30 713c
00000220: bb41 18bd d550 833c c62d 15be e374 9e3c
00000230: 3306 a13d a792 1d3d f2a3 09bd 9d51 7e3d
00000240: f4f9 b7bd c77e 2cbb 62dd fb3b 85a0 babc
00000250: 9941 803d e6b1 9cbd 0e05 8c3d fe73 66bd
00000260: caba 8f3d 371c 743d cbaa a9bc bc4f afbd
00000270: fe74 1e3d 4d01 98bd 59e5 a93d 6312 383d
00000280: 99a3 773b 09f0 9bbd 1ae3 3bbe 0a64 a63d
00000290: 19a6 8a3d 91c0 d2bd 58ca 313d 1ee0 6c3d
000002a0: 0d85 aa3c 6f90 ad3c 9ba8 583d 5e28 31bc
000002b0: d44c be3d 610e ec3c 9626 3c3e 858d 013e
000002c0: b6ea 933b 927a 833d 90de 5e3d 57cf 103c
000002d0: a112 3d3d 0e3c 65bc 4c75 8cbd 1007 0f3e
000002e0: 32eb ccbb ffd9 ccbb b518 1d3e 6ed7 073e
000002f0: 6877 30bd cef1 7e38 268a 453d 813b 17be
00000300: a265 7e3d 339f 813c a181 d9bb f342 07bd
00000310: c333 7abd 422d ad3b 8b24 56bc 8e70 a43b
00000320: 5b48 8b3c d756 05bd e066 86bd 4583 9abd
00000330: 2468 a73a 1426 56bd 8047 d8bc 7fcc 03bd
00000340: 8fc7 80bd 09e2 613d a8bb ecbb e808 94bd
00000350: 8013 e1bd 88cd 023c 3fb4 b93d c01f 0fbd
00000360: c689 d9bc 9f8c 863c 30df 7c3d b99e f7bd
00000370: 3126 823d 9def b7bd a2ce 84bd a87f ee3c
00000380: 5e23 c63c 9990 bdba bfee cdbd a0d5 893d
00000390: 1269 9dbd 3e3c b9bd 7845 8ebc 4c19 dc3c
000003a0: 26bd 583b 9d1a 27bd a66f c63d a151 0cbe
000003b0: d667 c1ba c55b 8fbd 7991 3a3d 35a0 21bd
000003c0: 0120 aa3d b68a 3abd 1ab8 97bd ed4b 5c3d
000003d0: 8bec 993c b114 eabd 8a7f de3c 3237 adbd
000003e0: dd36 bcbd 4693 c9bd 5c23 4f3d 23b2 283d
000003f0: 961f 42bd 8b10 e7bb a086 8f3c aaed 51bc
