saved_model/model_1.pth (torch, 223733 bytes, 11 tensors)

convs.0.lin_l.weight f4 [114, 10]
-0.0036922607 -0.14990726 -0.20572653 0.22893046 0.15409698 -0.038189463 0.11564906 0.26126185
-0.0006194418 0.28363326 0.19392541 0.014314894 0.104802586 -0.090221964 0.0069209132 -0.32158667
-0.34201354 0.07643974 0.07447967 -0.008681454 0.2854561 0.17249914 -0.18749818 -0.09780009
-0.12111486 -0.059613675 0.03754207 0.27685043 -0.2329328 0.12703702 0.20909132 -0.13607831
-0.09458536 -0.1772635 -0.264672 -0.1252743 -0.28451186 0.17396586 -0.234713 -0.11261186
0.24116708 0.20082572 0.21053262 -0.31657976 -0.017863913 0.04813145 -0.2884393 0.47402287
-0.24012049 0.21309882 -0.16687681 -0.3038851 2.9931645e-05 0.19715658 -0.09006044 -0.16069528
-0.11613599 0.21235286 -0.098182395 -0.17035721 -0.14536372 -0.21549183 -0.2606479 0.103669725
-0.20069595 -0.22966293 -0.25253877 0.097748235 -0.12866163 -0.13473274 0.13431473 -0.25761348
-0.37370583 0.2771983 0.16459617 0.20439644 -0.21510981 0.22492841 -0.17983033 0.06416357
-0.034635432 -0.16671385 0.19254829 0.007962505 0.25956735 -0.19200194 -0.013220052 -0.14545521
-0.20342539 0.11058801 0.19130053 -0.124273956 -0.14840461 -0.2515979 -0.00031792684 0.1031367
0.1375191 -0.6633678 0.23721063 -0.15336679 -0.27279955 -0.019595586 -0.085747376 -0.34239092
0.113858394 -0.2935052 0.107517324 0.21291925 0.16691376 -0.21772985 0.033488225 0.26459518
0.00033112947 -0.11169449 -0.2700082 -0.0011297691 0.24672312 -0.19294818 0.15984902 -0.13817246
0.084532894 0.255697 -0.13970436 -0.12946607 0.1989853 -0.05878074 0.19754621 -0.17934917
0.21384166 -0.07630275 0.031648193 -0.22116052 -0.16163492 -0.10650558 0.24314576 0.30345538
-0.097183116 0.13284479 -0.04625276 0.058509167 -0.22719622 -0.33323303 -0.11670127 0.180561
0.05279354 -0.25961596 0.20758258 -0.46963292 0.33215612 0.104066804 0.19654292 -0.102289766
-0.20252916 -0.34855193 -0.08457964 0.069310054 -0.020181077 -0.10992775 -0.32024565 -0.2869689
-0.05611942 0.091042146 -0.16361323 0.13463254 0.07902519 -0.17996918 -0.3309349 -0.17861445
0.27714047 -0.15704376 -0.08325247 0.028261151 0.24746181 0.16507207 0.061393335 0.2467644
-0.2253678 -0.0378729 0.1432484 -0.28594178 -0.20935076 0.26654938 0.1347106 0.13841528
0.05469539 0.16171527 -0.26235235 -0.34524733 0.19232024 0.015563036 -0.056882113 0.045993444
0.211746 -0.18019661 -0.2956112 -0.28351748 -0.069599256 0.17646281 0.120282546 -0.24444972
0.08004465 -0.31622648 0.23681828 0.29912335 -0.18526463 -0.27753064 0.0646418 0.10875844
0.10603421 0.087259986 -0.19162935 0.20087866 0.21174076 -0.21099634 0.28174832 -0.18692538
0.0074983924 -0.5535953 0.10884553 -0.08787726 0.19640306 -0.26378763 -0.12495142 0.016022483
0.20604734 -0.035446562 0.23888445 0.49607643 -0.1349946 0.09948757 0.01995757 -0.07298201
0.20397687 0.13855527 -0.13860239 0.023517149 -0.11272292 -0.2726511 -0.062156092 -0.28125793
-0.37214646 -0.22851788 -0.06657511 -0.2588241 -0.3113564 -0.1659985 0.11158671 -0.22133811
0.19296882 0.039411053 0.1403216 -0.09774211 0.23695691 0.042600423 0.116289385 7.0565555e-05
00000000: dbf9 71bb 4a81 19be faa9 52be bf6c 6a3e
00000010: 99cb 1d3e 8e6c 1cbd 6ad9 ec3d 1dc4 853e
00000020: 0962 22ba 6138 913e 6294 463e 0489 6a3c
00000030: bda2 d63d 4bc6 b8bd d4c8 e23b 02a7 a4be
00000040: 661c afbe 708c 9c3d cc88 983d a83c 0ebc
00000050: 4d27 923e 9da3 303e 86ff 3fbe 6a4b c8bd
00000060: 110b f8bd 782d 74bd b7c5 193d 57bf 8d3e
00000070: f085 6ebe fe15 023e 091c 563e 1d58 0bbe
00000080: f8b5 c1bd 9084 35be 1783 87be e847 00be
00000090: 8aab 91be 1b24 323e 9b58 70be 0ca1 e6bd
000000a0: 81f4 763e 42a5 4d3e dd95 573e be16 a2be
000000b0: 5757 92bc 7c25 453d 51ae 93be 20b3 f23e
000000c0: 25e2 75be 9436 5a3e c1e1 2abe d496 9bbe
000000d0: b815 fb37 6ae3 493e 9c71 b8bd 4e8d 24be
000000e0: b5d8 edbd 0773 593e da13 c9bd 1f72 2ebe
000000f0: 3ada 14be e4a9 5cbe a473 85be cb50 d43d
00000100: 3d83 4dbe c22c 6bbe c34c 81be 3a30 c83d
00000110: e0bf 03be 61f7 09be cd89 093e eae5 83be
00000120: 5f56 bfbe f0ec 8d3e e68b 283e 4d4d 513e
00000130: bf45 5cbe a253 663e 7125 38be 3168 833d
00000140: e2dd 0dbd 09b7 2abe 612b 453e 2b75 023c
00000150: 03e6 843e 289c 44be eb98 58bc 36f2 14be
00000160: bf4e 50be f77b e23d 49e4 433e 5883 febd
00000170: 61f7 17be 71d1 80be 6baf a6b9 5639 d33d
00000180: cfd1 0c3e 79d2 29bf 58e7 723e 2f0c 1dbe
00000190: 62ac 8bbe ec86 a0bc 529c afbd dd4d afbe
000001a0: 972e e93d 5046 96be 0b32 dc3d 8107 5a3e
000001b0: 71eb 2a3e 93f4 5ebe f32a 093d 0579 873e
000001c0: 729b ad39 15c0 e4bd 843e 8abe c314 94ba
000001d0: fca4 7c3e 3594 45be 76af 233e 157d 0dbe
000001e0: 951f ad3d b8ea 823e a90e 0fbe c192 04be
000001f0: cdc2 4b3e 13c4 70bd 8e49 4a3e 4fa7 37be
00000200: 4ff9 5a3e 9e44 9cbd 89a1 013d e777 62be
00000210: a083 25be 991f dabd 34fb 783e 815e 9b3e
00000220: f107 c7bd 7708 083e 8973 3dbd 4fa7 6f3d
00000230: 20a6 68be 859d aabe 1301 efbd fce4 383e
00000240: 0a3e 583d 62ec 84be 8790 543e ba73 f0be
00000250: 5e10 aa3e fa20 d53d 8c42 493e 4c7d d1bd
00000260: ce63 4fbe 6675 b2be 1738 adbd 6ef2 8d3d
00000270: c952 a5bc cd21 e1bd 3df7 a3be 96ed 92be
00000280: 7add 65bd 4e74 ba3d 3a8a 27be 1ddd 093e
00000290: f5d7 a13d d749 38be 4d70 a9be b5e6 36be
000002a0: 5be5 8d3e 14d0 20be 4580 aabd ee83 e73c
000002b0: a166 7d3e a708 293e 9477 7b3d cfaf 7c3e
000002c0: d1c6 66be 9d20 1bbd b5af 123e f666 92be
000002d0: 0c60 56be 2979 883e 93f1 093e bcbc 0d3e
000002e0: 4608 603d b098 253e 0c53 86be 42c4 b0be
000002f0: 99ef 443e 1bfc 7e3c 38fd 68bd 9f63 3c3d
00000300: f2d3 583e 7685 38be 5a5a 97be 3429 91be
00000310: 0e8a 8ebd abb2 343e b256 f63d 0751 7abe
00000320: 73ee a33d 70e8 a1be 7e80 723e b226 993e
00000330: 03b6 3dbe 7f18 8ebe ec62 843d bfbc de3d
00000340: 7728 d93d 5db5 b23d 7c3a 44be 23b3 4d3e
00000350: 92d2 583e 6d0f 58be 5141 903e 5e69 3fbe
00000360: 13b5 f53b 6cb8 0dbf 68ea de3d fef8 b3bd
00000370: e21d 493e 2c0f 87be 88e6 ffbd 9541 833c
00000380: 13fe 523e 6a30 11bd 209e 743e bbfd fd3e
00000390: 063c 0abe 24c0 cb3d 0f7e a33c 9877 95bd
000003a0: 50df 503e 6fe1 0d3e c9ed 0dbe 09a7 c03c
000003b0: 46db e6bd ed98 8bbe 6397 7ebd 0a01 90be
000003c0: fb89 bebe 9700 6abe 8858 88bd 9884 84be
000003d0: 1b6a 9fbe 83fb 29be 9387 e43d 75a6 62be
000003e0: 9e99 453e 7c6d 213d 77b0 0f3e 042d c8bd
000003f0: d5a4 723e c87d 2e3d 2129 ee3d 98fc 9338

convs.0.lin_l.bias f4 [114]
-0.14119813 -0.29519615 0.10376059 -0.033412766 -0.3426524 -0.1578393 0.13057873 0.20684814
-0.03328231 0.19294958 0.23645155 -0.072465226 -0.13556759 -0.28680655 0.15289997 0.106637806
0.0952101 0.11652038 -0.28039253 -0.24737842 -0.23227131 -0.045437478 0.1520088 -0.047447033
0.11683432 -0.2858219 -0.15584742 0.06799373 0.29610363 -0.17365448 -0.20667313 -0.15339203
0.024428802 0.26291245 -0.19964585 -0.27343053 0.042842183 0.27820495 0.12373528 0.07206548
-0.12750894 -0.07356968 0.22173172 0.17647141 -0.06845621 0.018950954 0.17325959 0.24711876
-0.27919844 0.10846491 -0.3567033 -0.005482972 0.20358078 -0.06609752 -0.14828835 -0.15791188
0.07294856 -0.19807969 0.21672483 -0.15532196 0.23504053 -0.049671527 -0.18309124 0.00825589
0.024223648 6.736505e-05 -0.16654699 -0.07349783 0.16600148 0.20441742 -0.20064916 -0.25286424
-0.21281151 0.06749819 -0.25677022 -0.026409278 0.21366486 -0.06321692 0.019819334 -0.16071895
-0.1323553 -0.04298853 0.20276585 0.2861734 0.19025439 -0.09638476 -0.04317722 0.101079606
-0.20022818 0.11280156 -0.060913995 -0.25752264 -0.12766466 0.3232825 0.22457877 0.0018182822
0.16635269 -0.29000694 0.0015788272 0.010844917 0.112846866 -0.21731837 -0.24609561 0.046505753
0.17292242 0.12918025 -0.16449638 0.08223961 -0.28460878 -0.09158565 -0.28560895 -0.19309011
0.14637366 -0.10430354
00000000: 3e96 10be f323 97be 6f80 d43d d3db 08bd
00000010: 2370 afbe a0a0 21be 6eb6 053e 00d0 533e
00000020: 0853 08bd 9394 453e 5b20 723e a668 94bd
00000030: 3bd2 0abe 4fd8 92be cf91 1c3e ec64 da3d
00000040: 83fd c23d 3da2 ee3d 9c8f 8fbe c550 7dbe
00000050: 88d8 6dbe a61c 3abd 32a8 1b3e d257 42bd
00000060: d546 ef3d 4057 92be 7796 1fbe 4c40 8b3d
00000070: e59a 973e 7bd2 31be 1fa2 53be cd12 1dbe
00000080: e91e c83c 769c 863e f66f 4cbe 16ff 8bbe
00000090: 497b 2f3d e170 8e3e ec68 fd3d 1197 933d
000000a0: b491 02be b3ab 96bd a40d 633e ecb4 343e
000000b0: c532 8cbd 083f 9b3c f66a 313e b30c 7d3e
000000c0: 19f3 8ebe da22 de3d d1a1 b6be 81aa b3bb
000000d0: 7b77 503e 235e 87bd e7d8 17be a7b3 21be
000000e0: 0e66 953d 67d5 4abe 1ded 5d3e b80c 1fbe
000000f0: 77ae 703e 5f74 4bbd 457c 3bbe b643 073c
00000100: ac70 c63c 5646 8d38 4b8b 2abe 0886 96bd
00000110: 4bfc 293e cd52 513e f976 4dbe 6c77 81be
00000120: 43eb 59be 7e3c 8a3d 6377 83be 4558 d8bc
00000130: f6ca 5a3e df77 81bd 285c a23c 8293 24be
00000140: 2688 07be be14 30bd daa1 4f3e 5285 923e
00000150: 0cd2 423e 6065 c5bd 99da 30bd d302 cf3d
00000160: 9e08 4dbe 8104 e73d f480 79bd 02da 83be
00000170: 86ba 02be 4985 a53e faf7 653e 6d53 ee3a
00000180: 5c58 2a3e ca7b 94be a6f0 ce3a e1ae 313c
00000190: 421c e73d b588 5ebe 7d00 7cbe d17c 3e3d
000001a0: 9312 313e d447 043e bd71 28be 3e6d a83d
000001b0: 3eb8 91be 4291 bbbd 563b 92be 6ab9 45be
000001c0: fae2 153e 189d d5bd

convs.0.lin_r.weight f4 [114, 10]
0.18281744 -0.23722643 -0.1561684 0.03468128 -0.31118286 0.123638846 0.13082172 -0.109487325
-0.2187464 -0.23969643 0.065201364 0.21615914 0.19866605 0.031285997 -0.1145068 -0.11712287
-0.19971056 -0.25821307 -0.07069476 0.20225883 0.20729163 -0.065598264 0.088541254 -0.009146424
-0.25041142 0.22081393 -0.17848809 0.14709911 -0.079988256 -0.23224312 0.27388814 0.029251587
-0.20564401 0.054268938 0.17625578 -0.09582258 0.011427216 0.0574429 -0.15246159 0.17429115
0.190719 0.09136212 -0.21414512 0.17146793 0.24870746 -0.08650171 0.14710383 -0.070537
-0.3983457 -0.1175546 -0.24665652 0.30767605 -0.25950643 0.2855913 -0.2496093 -0.0714675
0.16558635 -0.18647917 -0.18692045 -0.30929372 -0.21073425 0.1716661 -0.18119958 -0.11468533
0.2533755 0.2839714 -0.09598977 0.30211267 -0.11515974 0.29957575 0.26501724 0.08719436
0.14088906 0.1452921 -0.2727048 -0.2224013 0.21693516 0.18671964 -0.47659656 -0.06782091
-0.31015876 0.077572554 -0.30472666 -0.32040367 0.19589694 0.05781325 -0.065180875 -0.51582
0.38804013 0.113066696 -0.081162244 0.2114509 -0.34355295 -0.088100314 0.1995655 -0.017610257
-0.2197207 -0.6017245 0.03260652 0.17114487 0.031603917 0.11338839 -0.03549201 -0.35624298
-0.1881422 -0.30788124 -0.021881916 0.39466473 -0.052422464 -0.24905686 -0.22374694 0.25373712
-0.20276877 -0.12106576 -0.12797949 -0.25960168 -0.10495765 0.0029511019 0.2086206 0.19194922
-0.10745068 -0.019205563 -0.22376736 -0.21637724 -0.31146652 0.12735243 0.16416152 -0.2219596
0.046127312 0.018626537 -0.30776545 -0.07657989 -0.012007868 -0.09552534 0.17417824 -0.2753031
-0.07170816 -0.31312713 0.22917813 -0.25459304 -0.23495047 -0.064347886 -0.0018655849 0.00133795
0.0064359903 0.21776605 -0.054075755 0.11117571 0.037103586 0.10916888 -0.22458701 0.18416159
-0.16090818 0.00012613588 0.06625287 0.27202392 0.24156389 -0.37923345 0.1489327 0.23079349
0.2096364 -0.33875 -0.3407498 0.2721573 0.20046182 0.011497803 -0.03820696 0.08673567
0.0040197703 -0.039145075 0.04026838 -0.09528844 -0.28443626 -0.25217596 0.06324112 0.1337199
-0.2756501 -0.25308052 -0.3131417 0.25484827 0.2988392 0.32815674 0.06313083 -0.17008534
-0.11136776 -0.205617 -0.011895914 -0.2085385 -0.017211055 -0.092804804 0.30813503 -0.22902727
-0.23801868 -0.12869352 -0.30898073 -0.09971641 -0.036981568 -0.31495598 0.23049656 -0.22279797
0.18884082 -0.047116105 0.078551345 -0.00085670856 0.111859836 0.119587556 -0.288342 0.07380326
-0.16736984 -0.20742345 -0.12900108 0.10318777 -0.031930648 0.059668332 -0.12113043 0.20392321
0.056615 -0.1447902 0.09808619 -0.17104922 -0.08636362 -0.12524454 -0.24971755 -0.119082466
-0.13765518 0.28918964 -0.22396474 0.23814115 0.07161587 0.11229935 0.27690762 -0.10083921
-0.3297842 -0.26153693 -0.085791394 -0.28623095 -0.07528528 0.26988176 -0.24812175 0.13461484
0.037301876 0.03042987 0.1106894 0.2676932 -0.014419773 0.091764174 0.16693263 -0.09891946
0.09382703 -0.005975205 -0.14720671 -0.1836377 -0.2778269 0.12918201 -0.16736366 0.07557406
00000000: 7f34 3b3e 7ceb 72be 9cea 1fbe f50d 0e3d
00000010: 5c53 9fbe 5d36 fd3d 21f6 053e e43a e0bd
00000020: 0eff 5fbe fb72 75be 4b88 853d d258 5d3e
00000030: 1d6f 4b3e bf25 003d 8b82 eabd 1ede efbd
00000040: ed80 4cbe 8134 84be 6ac8 90bd f01c 4f3e
00000050: 4244 543e 6258 86bd 1e55 b53d e2da 15bc
00000060: ed35 80be 0c1d 623e 95c5 36be 26a1 163e
00000070: e2d0 a3bd 24d1 6dbe 113b 8c3e 06a1 ef3c
00000080: 5894 52be 1b49 5e3d 657c 343e a13e c4bd
00000090: 3839 3b3c 3f49 6b3d e41e 1cbe 6179 323e
000000a0: d74b 433e 101c bb3d dc48 5bbe 4a95 2f3e
000000b0: 2bad 7e3e cf27 b1bd 63a2 163e b475 90bd
000000c0: f8f3 cbbe 77c0 f0bd 8793 7cbe b787 9d3e
000000d0: 07de 84be 0639 923e 9599 7fbe 8d5d 92bd
000000e0: 788f 293e 65f4 3ebe 1368 3fbe bf5b 9ebe
000000f0: b8ca 57be 3dc9 2f3e 628c 39be 24e0 eabd
00000100: 6fba 813e b364 913e 4996 c4bd 83ae 9a3e
00000110: dfd8 ebbd fe61 993e 57b0 873e f592 b23d
00000120: 3945 103e 74c7 143e f79f 8bbe 2bbd 63be
00000130: 4024 5e3e 6f33 3f3e 7704 f4be b0e5 8abd
00000140: 21cd 9ebe 5cde 9e3d 2205 9cbe f30b a4be
00000150: 3599 483e 96cd 6c3d 8d7d 85bd c80c 04bf
00000160: 32ad c63e 838f e73d 6438 a6bd 9686 583e
00000170: 2ce6 afbe f06d b4bd e65a 4c3e 6343 90bc
00000180: 77fe 60be 9e0a 1abf 6a8e 053d 9a40 2f3e
00000190: 1c73 013d 2c38 e83d 1260 11bd 7b65 b6be
000001a0: 59a8 40be 9ca2 9dbe b441 b3bc 7f11 ca3e
000001b0: f0b8 56bd c308 7fbe eb1d 65be d5e9 813e
000001c0: 9ea2 4fbe 53f1 f7bd 0e0d 03be 83ea 84be
000001d0: 09f4 d6bd 4667 413b a3a0 553e 568e 443e
000001e0: 1a0f dcbd fc54 9dbc 4523 65be ff91 5dbe
000001f0: 8a78 9fbe ad68 023e f519 283e 6149 63be
00000200: feef 3c3d ae96 983c 6f93 9dbe ebd5 9cbd
00000210: a6bc 44bc caa2 c3bd c85b 323e 87f4 8cbe
00000220: badb 92bd 3352 a0be acad 6a3e 055a 82be
00000230: db96 70be d3c8 83bd a486 f4ba 275e af3a
00000240: 00e5 d23b 10fe 5e3e 8a7e 5dbd 17b0 e33d
00000250: eef9 173d ef93 df3d 23fa 65be db94 3c3e
00000260: 1dc5 24be 5843 0439 96af 873d b846 8b3e
00000270: 865c 773e e32a c2be d081 183e 2155 6c3e
00000280: edaa 563e a470 adbe c276 aebe 3458 8b3e
00000290: dd45 4d3e 4861 3c3c e77e 1cbd 79a2 b13d
000002a0: 47b8 833b 9656 20bd 75f0 243d 9626 c3bd
000002b0: a1a1 91be 351d 81be 8f84 813d dfed 083e
000002c0: 0322 8dbe c593 81be 1c54 a0be 797b 823e
000002d0: 7401 993e 2904 a83e bd4a 813d da2a 2ebe
000002e0: c814 e4bd 438d 52be 14e7 42bc 1e8b 55be
000002f0: 33fe 8cbc 7210 bebd e0c3 9d3e 2086 6abe
00000300: 2bbb 73be 3cc8 03be b932 9ebe 1e38 ccbd
00000310: fc79 17bd e941 a1be 4a07 6c3e 2725 64be
00000320: 7d5f 413e d1fc 40bd 87df a03d bd94 60ba
00000330: c516 e53d 52ea f43d 90a1 93be 2a26 973d
00000340: 0063 2bbe d066 54be dc18 04be 1c54 d33d
00000350: b6c9 02bd c866 743d 3b13 f8bd 3fd1 503e
00000360: 21e5 673d e243 14be 6ae1 c83d 8727 2fbe
00000370: 69df b0bd 1b40 00be f5b5 7fbe 82e1 f3bd
00000380: 7bf5 0cbe aa10 943e 0357 65be 46db 733e
00000390: 57ab 923d 34fd e53d d6c6 8d3e ca84 cebd
000003a0: 7ad9 a8be 2be8 85be 66b3 afbd dd8c 92be
000003b0: 2b2f 9abd f12d 8a3e a113 7ebe 79d8 093e
000003c0: dac9 183d 1048 f93c 20b1 e23d 150f 893e
000003d0: e940 6cbc dbee bb3d 63f0 2a3e 4996 cabd
000003e0: 6328 c03d a7cb c3bb 5bbd 16be 850b 3cbe
000003f0: 543f 8ebe 4a48 043e 6161 2bbe 93c6 9a3d

convs.1.lin_l.weight f4 [114, 114]
0.05637388 0.01948857 -0.030270249 -0.05812198 0.0008526885 0.06552148 0.0867984 -0.03261311
-0.0010020308 -0.014053304 -0.002513457 -0.108755834 0.043497425 -0.057045117 -0.0009861612 -0.100177094
-0.0045158733 0.060707167 -0.06548366 0.025455825 -0.007962323 0.024017544 -0.08278036 -0.062188778
-0.069971934 0.036184467 0.085677534 0.06746112 0.009037894 -0.02416588 0.009416969 -0.03541512
-0.109975964 -0.059150733 -0.06620859 -0.00849243 0.0013479282 0.05419717 -0.014676278 -0.08171027
-0.08555159 -0.054680694 0.036036365 0.04186817 0.045403063 -0.09158852 0.048570268 0.04580005
0.005980685 -0.075436875 -0.040315636 -0.113885425 -0.0774263 -0.09135069 -0.082908876 0.043550994
-0.005947824 -0.06302035 -0.07287678 -0.071890615 -0.080499664 -0.09133333 -0.064792216 -0.101971656
-0.038156595 0.06534118 0.05362692 -0.054031894 0.06441356 0.04115171 0.018136673 0.049846366
0.03594714 -0.07736522 0.06251474 -0.12958507 -0.05653311 0.034970023 -0.060820147 0.0069591054
0.059205923 -0.018429467 0.022463521 -0.008179386 0.0384282 -0.09144582 -0.044571966 0.07004863
-0.060783632 0.0010695976 -0.057522822 0.053600267 0.012825383 0.025326492 -0.0040536067 0.06066885
-0.0047179 -0.07797356 -0.050202828 -0.004027693 0.04501675 -0.05420149 -0.004097489 0.05495449
-0.06747511 -0.056633666 -0.03549489 -0.07996034 -0.011464998 -0.103545226 -0.035437156 0.045346726
-0.07659022 -0.092731744 -0.0043439115 -0.04987059 0.07977198 0.069263324 -0.09422701 0.008845483
-0.010521234 -0.003804403 -0.109736145 -0.06672425 -0.07432489 0.027240055 -0.041429903 0.040801924
0.070008256 -0.008144393 0.024601733 -0.070439175 -0.10651015 0.09221312 -0.044856418 -0.01591151
-0.07823573 0.00042250843 0.0027857341 -0.024068505 -0.06362456 0.05355395 -0.13779122 0.0327124
0.047633067 0.0007081595 -0.049289465 0.00398345 0.014147093 -0.034176085 -0.1151788 0.0029413546
-0.017643448 -0.13158844 0.04948356 -0.08683237 -0.082369834 0.06362141 -0.08788329 -0.043569792
-0.02400766 0.048890457 -0.12094505 -0.09245295 -0.033634957 -0.0041746013 -0.032416932 0.069634825
-0.011552632 -0.028793013 -0.108404 -0.04650625 -0.07394529 -0.068377785 -0.017248036 -0.039072648
-0.11923713 0.029013416 -0.10376146 0.03383754 0.055789523 0.050574917 -0.0383716 -0.04960088
-0.07423907 0.06927908 -0.031437613 -0.07815932 -0.11717996 0.005225955 -0.024229025 -0.07610143
0.0553817 0.09038533 -0.07975042 -0.01825269 -0.030654918 -0.07809234 -0.0263552 0.05625204
-0.009697656 -0.03723773 -0.02732525 0.032346476 -0.071700625 -0.05931765 0.063180044 0.048276693
-0.011327777 -0.0692652 -0.09892748 -0.059752557 -0.061944626 -0.107388526 -0.06979299 -0.07226378
0.016183127 0.01649298 -0.042939655 0.016911224 -0.07577101 -0.084283784 0.08347671 -0.12603788
-0.046766285 -0.01257519 -0.13182794 -0.024870498 -0.012309517 -0.20102118 -0.0915605 -0.06941101
-0.17065872 -0.08717543 0.05464703 -0.23037723 0.19719863 0.11662741 0.6260273 -0.23823085
-0.16759732 -0.028806668 0.33822393 0.07002516 -0.0044442923 -0.05485667 -0.12002055 0.028920496
0.032642998 0.030875126 0.099815816 -0.060674462 0.080853015 0.2053537 -0.038477633 -0.044917483
00000000: 4ce8 663d 7ea6 9f3c 50f9 f7bc 5011 6ebd
00000010: f586 5f3a 2030 863d 5cc3 b13d 5395 05bd
00000020: 9356 83ba d43f 66bc d0b8 24bb 61bb debd
00000030: 5b2a 323d 24a8 69bd 1442 81ba a629 cdbd
00000040: e4f9 93bb 14a8 783d 4c1c 86bd bc88 d03c
00000050: 6774 02bc 71c0 c43c c088 a9bd a9b9 7ebd
00000060: 724d 8fbd 2a36 143d b477 af3d 0e29 8a3d
00000070: ad13 143c 86f7 c5bc a149 1a3c 720f 11bd
00000080: 143b e1bd 0a48 72bd 5f98 87bd d523 0bbc
00000090: f7ac b03a dafd 5d3d c674 70bc b757 a7bd
000000a0: ac35 afbd ddf8 5fbd de9a 133d f57d 2b3d
000000b0: 90f8 393d c392 bbbd 9ef1 463d d598 3b3d
000000c0: 9ff9 c33b a67e 9abd 0222 25bd c33c e9bd
000000d0: ae91 9ebd 1216 bbbd 21cc a9bd 8762 323d
000000e0: f7e5 c2bb d010 81bd 6c40 95bd 633b 93bd
000000f0: 02dd a4bd f80c bbbd c8b1 84bd 84d6 d0bd
00000100: 174a 1cbd 99d1 853d e7a7 5b3d 8c50 5dbd
00000110: 42eb 833d b28e 283d 5c93 943c b42b 4c3d
00000120: 4f3d 133d a871 9ebd ba07 803d f3b1 04be
00000130: 438f 67bd ba3c 0f3d 8c1e 79bd 3509 e43b
00000140: e981 723d 65f9 96bc 6b05 b83c d502 06bc
00000150: e366 1d3d f247 bbbd 1891 36bd a875 8f3d
00000160: 42f8 78bd bd31 8c3a 0d9d 6bbd f48b 5b3d
00000170: 8e21 523c 8179 cf3c 1ed4 84bb e67f 783d
00000180: 9d98 9abb 9ab0 9fbd 7ba1 4dbd bdfa 83bb
00000190: 7c63 383d 6202 5ebd 3b44 86bb f617 613d
000001a0: 6430 8abd b4f8 67bd 1763 11bd 3fc2 a3bd
000001b0: b0d7 3bbc 850f d4bd 8d26 11bd 7dbd 393d
000001c0: 55db 9cbd 24ea bdbd 5f57 8ebb 1b45 4cbd
000001d0: 7e5f a33d eed9 8d3d 17fa c0bd a5ec 103c
000001e0: 4161 2cbc 4a53 79bb 58bd e0bd b9a6 88bd
000001f0: a637 98bd 8926 df3c 67b2 29bd eb1f 273d
00000200: 7d60 8f3d 0f70 05bc 9389 c93c 6a42 90bd
00000210: fe21 dabd 3bda bc3d 5dbb 37bd db58 82bc
00000220: 0e3a a0bd 1f84 dd39 dd90 363b 502b c5bc
00000230: 984d 82bd 635b 5b3d 2419 0dbe 70fd 053d
00000240: e41a 433d c8a3 393a c0e3 49bd 9a87 823b
00000250: 35c9 673c 39fc 0bbd dde2 ebbd bec3 403b
00000260: fe88 90bc 1fbf 06be 46af 4a3d 2bd5 b1bd
00000270: 84b1 a8bd f14b 823d 28fc b3bd 3d76 32bd
00000280: b6ab c4bc 5c41 483d 0ab2 f7bd f957 bdbd
00000290: cfc4 09bd 18cb 88bb 9ec7 04bd b49c 8e3d
000002a0: 4047 3dbc 53df ebbc eb02 debd 567d 3ebd
000002b0: a170 97bd a709 8cbd c14b 8dbc a40a 20bd
000002c0: 9932 f4bd 8bad ed3c e380 d4bd 3b99 0a3d
000002d0: 8e83 643d a527 4f3d 8a2b 1dbd 4b2a 4bbd
000002e0: a70a 98bd 31e2 8d3d bac4 00bd fe11 a0bd
000002f0: 0cfc efbd 7d3e ab3b f37b c6bc 11db 9bbd
00000300: ecd7 623d f21b b93d 3054 a3bd aa86 95bc
00000310: 0620 fbbc e0ee 9fbd dce6 d7bc 8a68 663d
00000320: ebe2 1ebc 9786 18bd 34d9 dfbc bd7d 043d
00000330: c7d7 92bd 10f7 72bd 8a64 813d c8bd 453d
00000340: 2498 39bc eada 8dbd 7e9a cabd 19bf 74bd
00000350: a6b9 7dbd 84ee dbbd a1ef 8ebd 08ff 93bd
00000360: 7a92 843c 491c 873c 7ee1 2fbd 6889 8a3c
00000370: d52d 9bbd fa9c acbd d6f5 aa3d 1310 01be
00000380: 018e 3fbd 2b08 4ebc e7fd 06be 37bd cbbc
00000390: dbad 49bc 7fd8 4dbe 1284 bbbd 5c27 8ebd
000003a0: 29c1 2ebe 0889 b2bd 90d5 5f3d 02e8 6bbe
000003b0: 70ee 493e 5ada ee3d 5343 203f caf2 73be
000003c0: a29e 2bbe f6fb ebbc b02b ad3e 5a69 8f3d
000003d0: 6da1 91bb 63b1 60bd 56cd f5bd adea ec3c
000003e0: aab4 053d d5ed fc3c 3c6c cc3d c985 78bd
000003f0: 4496 a53d 3e48 523e b99a 1dbd 65fb 37bd

convs.1.lin_l.bias f4 [114]
-0.07597003 -0.0029101206 0.18785243 0.014414974 -0.06361569 -0.06638247 -0.059889287 -0.04461316
0.014121378 0.024310922 -0.012910371 0.06877368 -0.040884763 -0.13627864 -0.02955335 -0.019124888
-0.0014870856 -0.07794232 0.089961015 0.020812722 0.025349185 0.0012396191 0.006387212 -0.06390042
-0.08280155 0.021278331 -0.080620795 0.056803804 0.055854984 -0.0023564224 0.052887317 -0.019362874
0.014418655 -0.06696022 -0.098080695 -0.06856832 -0.0723914 -0.12559073 0.089630894 -0.06430309
-0.112686425 -0.10900269 -0.06677627 -0.039879046 0.019907199 0.043512583 -0.0133025795 0.037755392
0.0013162381 -0.06264454 0.021276636 0.04006056 -0.020516664 -0.10140068 0.082731605 -0.012847026
-0.035345268 0.003913191 -0.13086964 0.019716704 -0.018439684 -0.10278692 -0.13012491 0.06352115
-0.0747676 -0.0035039615 0.017963747 0.04940168 0.037081294 0.031581853 -0.0093744015 0.060435623
-0.030249013 0.0088000065 -0.082303524 0.029513553 -0.09456057 0.0082017025 -0.11306508 -0.04205535
0.021678945 0.083553806 0.020751208 -0.06711334 -0.03392162 0.024946209 0.025458135 -0.08854703
0.060587134 0.027305372 -0.10042597 0.053018574 0.034006063 -0.08904773 -0.09841912 -0.06818412
-0.043358788 -0.025233205 -0.10487283 0.16163835 0.00057574874 -0.11931302 -0.078218944 -0.021837065
0.035564978 -0.00883777 0.043642122 0.10189431 -0.085050724 0.013265039 0.009156114 -0.0086928075
-0.05297976 -0.0020177525
00000000: 2d96 9bbd b9b7 3ebb 635c 403e c82c 6c3c
00000010: f148 82bd 88f3 87bd 784e 75bd 4abc 36bd
00000020: 5a5d 673c b327 c73c 0586 53bc 37d9 8c3d
00000030: c876 27bd a18c 0bbe de19 f2bc ccab 9cbc
00000040: 50ea c2ba 39a0 9fbd 7b3d b83d 717f aa3c
00000050: 18a9 cf3c b77a a23a d14b d13b 39de 82bd
00000060: dc93 a9bd e54f ae3c 841c a5bd 1bab 683d
00000070: 32c8 643d 356e 1abb 5fa0 583d e49e 9ebc
00000080: 393c 6c3c 7122 89bd 88de c8bd 8c6d 8cbd
00000090: f141 94bd db9a 00be 6790 b73d 57b1 83bd
000000a0: 24c8 e6bd cd3c dfbd ffc1 88bd 3658 23bd
000000b0: 6c14 a33c 403a 323d 10f3 59bc 66a5 1a3d
000000c0: 9f85 ac3a c84b 80bd 574c ae3c 8b16 243d
000000d0: 9012 a8bc 29ab cfbd 306f a93d 557c 52bc
000000e0: 33c6 10bd 3a3a 803b b102 06be ed84 a13c
000000f0: d20e 97bc f381 d2bd 773f 05be 6017 823d
00000100: c11f 99bd b8a2 65bb b528 933c 6a59 4a3d
00000110: 8ee2 173d f95b 013d 1797 19bc 588b 773d
00000120: c7cc f7bc e72d 103c c08e a8bd 68c6 f13c
00000130: f9a8 c1bd 6f60 063c aa8e e7bd 3b42 2cbd
00000140: 0b98 b13c 421e ab3d 70fe a93c b872 89bd
00000150: 66f1 0abd fe5b cc3c 948d d03c 2558 b5bd
00000160: 372a 783d 84af df3c 22ac cdbd 012a 593d
00000170: f149 0b3d a85e b6bd f78f c9bd 1ea4 8bbd
00000180: fc98 31bd deb5 cebc 91c7 d6bd 8684 253e
00000190: d8ed 163a 625a f4bd 4131 a0bd a5e3 b2bc
000001a0: 95ac 113d 4bcc 10bc 15c2 323d f7ad d03d
000001b0: 132f aebd 9b55 593c 8703 163c 476c 0ebc
000001c0: 4e01 59bd 453c 04bb

convs.1.lin_r.weight f4 [114, 114]
-0.002891047 0.06732565 0.039868902 -0.06694449 -0.060711987 -0.0026315618 -0.080984406 -0.034702305
-0.07478829 -0.06877646 -0.09703665 -0.026356837 0.029314524 -0.041045178 0.06264268 -0.018199252
-0.05826766 0.030010374 0.0856285 -0.09222675 0.061642967 0.0026385174 0.04357827 0.031838138
-0.06994076 0.0031066628 -0.07477207 -0.025934298 0.023086792 0.0066802935 -0.08335474 -0.02891931
0.0023363812 0.07871778 0.03372015 -0.0043964116 0.026045034 -0.10543429 0.07250054 -0.06329476
-0.09972159 -0.08308021 0.020418411 0.051545475 0.10818494 0.02135275 -0.083702065 -0.06432727
-0.016014196 -0.024070108 -0.004108117 0.0070147067 -0.02386071 0.08704289 0.032087162 0.0066907452
-0.018659912 -0.09290577 -0.15375283 -0.034551546 0.061478283 -0.057654593 0.088875875 -0.061763912
-0.039583158 0.027178682 0.010355112 0.09022874 -0.019371469 -0.10425479 0.021883192 0.09357824
-0.11079184 -0.016986733 -0.0037146846 -0.012316365 0.023843277 0.06887857 -0.0008979975 0.013183544
0.055011474 -0.015050763 0.037609886 -0.06885228 -0.05223984 -0.023940612 -0.1026534 -0.07739398
-0.05015884 0.06357064 -0.012838126 -0.031290505 -0.06626724 -0.020061022 0.033471126 0.012461644
-0.030509457 -0.0153877 -0.0014698684 -0.005936335 0.056359008 -0.07180649 0.08433099 0.033315066
-0.055965245 -0.03956079 -0.07252389 0.014312326 -0.044883482 -0.039864928 0.007931716 -0.046628844
-0.038380418 0.017232642 0.053111576 -0.05426401 -0.050953936 -0.09026515 0.04147961 -0.0060043884
-0.083819464 0.056168463 -0.005204262 -0.03360324 -0.04459468 0.004828105 -0.05013152 0.022948608
-0.08136146 -0.0883199 0.0097213555 0.009657818 -0.09325369 -0.0757335 -0.075379364 0.031865135
-0.09180655 0.07978932 -0.0019341329 0.06749147 -0.03071148 0.0060963514 0.0058792224 -0.05307942
0.036346637 -0.009248894 0.043102592 -0.018911231 0.06622155 0.011889442 0.0013437789 -0.11079072
0.04717229 -0.013765766 -0.12113005 0.06681371 -0.010133253 0.026769027 0.0064313654 0.04824211
-0.04535687 -0.053599942 0.021133885 -0.07386929 0.03104651 -0.03222437 0.07802085 0.055159014
0.040706765 -0.08740961 0.054582946 0.068984516 0.05315989 -0.10548961 -0.09993758 -0.049128238
-0.0960623 -0.07028368 -0.12267616 0.022829076 -0.09914558 0.085109636 0.07101873 0.013278604
-0.019142335 -0.02701583 -0.0038539653 0.0028479835 0.049493883 0.04463181 -0.033450834 0.012513881
0.025627071 -0.0003643689 0.063526504 0.005949122 -0.04546268 -0.033418216 -0.048929162 0.013865124
-0.014419218 -0.06116589 -0.045438364 -0.024107005 -0.08637562 0.04076285 0.082315415 -0.03691853
-0.07830182 0.0069905906 -0.10053998 0.0025439837 -0.0055171424 0.06393853 0.026099741 -0.088996515
-0.029340634 -0.076128535 0.044901762 0.07144643 -0.07749615 0.039475583 0.017157784 -0.10881023
-0.037239943 -0.0620481 -0.09448069 -0.08588492 0.00050840824 -0.053000595 -0.25835437 0.064375505
0.012204961 -0.036454216 -0.048941135 -0.22260424 0.22062272 0.2039519 0.17580484 0.030262081
-0.01895686 0.091601826 -0.3887307 0.08552907 0.026890533 -0.010694294 -0.035906993 0.078681685
0.030741848 0.18114407 0.005494166 -0.013520268 -0.31379655 -0.09334549 -0.080866 -0.25979987
00000000: b877 3dbb 08e2 893d 934d 233d 311a 89bd
00000010: 22ad 78bd 4876 2cbb 27db a5bd 0124 0ebd
00000020: 9a2a 99bd acda 8cbd 27bb c6bd 4bea d7bc
00000030: 0325 f03c fd1e 28bd ce4a 803d 9916 95bc
00000040: 12aa 6ebd 51d8 f53c ff5d af3d 61e1 bcbd
00000050: 567d 7c3d faea 2c3b 217f 323d b568 023d
00000060: 1a3d 8fbd 2799 4b3b 1922 99bd 2a74 d4bc
00000070: 8320 bd3c 5de6 da3b e4b5 aabd 30e8 ecbc
00000080: f91d 193b ca36 a13d 241e 0a3d c60f 90bb
00000090: 655c d53c efed d7bd 2a7b 943d afa0 81bd
000000a0: d53a ccbd f525 aabd 8344 a73c 5921 533d
000000b0: 1190 dd3d f6eb ae3c fd6b abbd 04be 83bd
000000c0: 3430 83bc ad2e c5bc 629d 86bb a0db e53b
000000d0: 8977 c3bc 8b43 b23d d46d 033d 0a3e db3b
000000e0: acdc 98bc 6145 bebd 6271 1dbe ec85 0dbd
000000f0: a7d0 7b3d 3927 6cbd 8e04 b63d 28fc 7cbd
00000100: f321 22bd d4a5 de3c 7da8 293c d8c9 b83d
00000110: eab0 9ebc 8983 d5bd 6144 b33c f3a5 bf3d
00000120: d5e6 e2bd c327 8bbc 1172 73bb 94ca 49bc
00000130: fa52 c33c 3510 8d3d 9867 6bba cbff 573c
00000140: b653 613d 7a97 76bc d30c 1a3d 6d02 8dbd
00000150: 71f9 55bd 1a1f c4bc f23b d2bd bc80 9ebd
00000160: 5b73 4dbd 5331 823d 0157 52bc 792a 00bd
00000170: 1eb7 87bd 0357 a4bc 0519 093d ec2b 4c3c
00000180: f8ee f9bc b11c 7cbc 99a8 c0ba 9685 c2bb
00000190: b4d8 663d 480f 93bd bab5 ac3d 6175 083d
000001a0: d03b 65bd 7f0a 22bd 6887 94bd 3f7e 6a3c
000001b0: bed7 37bd 6849 23bd 07f4 013c e3fd 3ebd
000001c0: c934 1dbd 782b 8d3c 868b 593d f043 5ebd
000001d0: 13b5 50bd efdc b8bd 86e6 293d 76c0 c4bb
000001e0: 8aa9 abbd e710 663d 8488 aabb 8da3 09bd
000001f0: e9a8 36bd 1535 9e3b b556 4dbd b8fe bb3c
00000200: d6a0 a6bd 10e1 b4bd 5246 1f3c d33b 1e3c
00000210: cafb bebd 2a1a 9bbd 7f60 9abd 0485 023d
00000220: 1305 bcbd 9568 a33d bb82 fdba f838 8a3d
00000230: a496 fbbc e7c3 c73b 7ea6 c03b ce69 59bd
00000240: 36e0 143d ac88 17bc 588c 303d baeb 9abc
00000250: 2a9f 873d efcb 423c bd21 b03a 3fe6 e2bd
00000260: bb37 413d cf89 61bc 0813 f8bd a0d5 883d
00000270: f205 26bc b84a db3c 34be d23b 8599 453d
00000280: 20c8 39bd 9d8b 5bbd f820 ad3c c848 97bd
00000290: 4055 fe3c b3fd 03bd 65c9 9f3d 6bee 613d
000002a0: 23bc 263d cf03 b3bd 5e92 5f3d c147 8d3d
000002b0: 2fbe 593d f00a d8bd 13ac ccbd b13a 49bd
000002c0: 50bc c4bd e4f0 8fbd a33d fbbd 0b04 bb3c
000002d0: d60c cbbd f64d ae3d 4572 913d 808e 593c
000002e0: 63d0 9cbc 4d50 ddbc cf92 7cbb 3ca5 3a3b
000002f0: 19ba 4a3d d8cf 363d be03 09bd 0507 4d3c
00000300: ddef d13c c408 bfb9 2f1a 823d daf0 c23b
00000310: 1337 3abd 8ae1 08bd f269 48bd 8c2a 633c
00000320: 953e 6cbc 1689 7abd 941d 3abd 0e7c c5bc
00000330: b3e5 b0bd f2f6 263d fc94 a83d e237 17bd
00000340: b45c a0bd 5311 e53b e8e7 cdbd f7b8 263b
00000350: 25c9 b4bb 34f2 823d 20cf d53c ce43 b6bd
00000360: c55b f0bc 47e9 9bbd e9ea 373d 8252 923d
00000370: 4db6 9ebd 26b1 213d 7b8e 8c3c e6d7 debd
00000380: e988 18bd 2626 7ebd 187f c1bd 6fe4 afbd
00000390: b346 053a 2717 59bd 0647 84be 4ed7 833d
000003a0: 51f7 473c 0451 15bd 8076 48bd 5ef2 63be
000003b0: ecea 613e c4d8 503e 2f06 343e 2fe8 f73c
000003c0: 6b4b 9bbc bd99 bb3d b607 c7be dd29 af3d
000003d0: 8949 dc3c 1f37 2fbc 3613 13bd dd23 a13d
000003e0: 54d6 fb3c d57d 393e 6808 b43b 1d84 5dbc
000003f0: f1a9 a0be ec2b bfbd 139d a5bd 7d04 85be

convs.2.lin_l.weight f4 [114, 114]
-0.058470976 -0.13183156 0.056431334 0.11626844 -0.06514692 0.106735595 0.07852237 -0.1563177
0.105236284 0.24828899 -0.06816318 0.13101888 -0.0872633 -0.041886274 0.044366416 0.09152554
0.053894468 -0.08520672 -0.102992214 0.043135528 0.13648722 -0.1814206 -0.07930959 -0.1457225
0.04247557 0.15864046 -0.35170594 0.20614186 0.03596467 0.005689113 0.19827259 0.07364058
0.10332706 -0.00017439034 -0.050452422 0.067620955 0.18675947 -0.1111298 -0.13749126 0.024186073
-0.011985639 -0.05582746 -0.103546225 0.0894652 -0.097016476 -0.033819973 0.05219734 -0.17906424
0.03486169 -0.027139274 -0.011851279 -0.15178151 0.15348911 -0.39769763 -0.18852933 -0.053775955
-0.07952169 -0.17769529 -0.08760784 0.013777481 0.099708736 -0.015830629 0.03414817 -0.0955085
-0.05395101 -0.08794344 -0.10379285 0.21556552 -0.0115265185 -0.05118399 -0.0989561 0.079635136
-0.016817912 -0.022222036 0.049978245 -0.12883313 0.05244845 -0.08132778 -0.1263366 -0.0889558
-0.07762334 -0.040783636 -0.09150547 0.12121199 0.07114884 0.21218793 -0.031364266 0.07363994
0.11229033 -0.00049314904 0.05150297 -0.1350104 0.13787973 0.036271635 0.041074377 0.13621923
0.06593406 0.09179024 0.0046909545 0.14395466 -0.06396598 -0.068104066 0.060783446 -0.16806197
-0.19545865 0.05216288 0.43333063 -0.068249755 -0.07124366 0.047108002 -0.19318224 0.107393995
-0.056611102 -0.026384987 -0.06486882 -0.04505741 0.07950595 -0.04797106 0.0819376 0.03339844
0.06433718 -0.4102213 -0.19943541 -0.019933503 -0.0070078103 -0.10317665 0.07876233 0.32649532
-0.04618601 0.045096565 -0.22500311 0.053402837 0.16130176 -0.18893129 -0.06397762 0.268485
-0.07474093 0.14375573 -0.070088975 -0.18506788 0.3662656 -0.24485578 0.10348081 -0.14574789
-0.3873773 -0.053060424 -0.25307465 -0.0099823205 -0.025684802 0.026150692 0.06430116 -0.06651449
0.0754511 0.0077017024 0.061564103 -0.02274717 0.050385404 0.07212163 0.088764735 0.019450182
0.072714545 0.045384858 0.015983598 0.07438533 0.093083985 -0.029292982 -0.1462517 -0.60103065
0.18061021 -0.012230105 -0.017495511 0.06337196 0.014862943 -0.015711987 -0.20378384 0.09735964
0.0881239 0.056779843 -0.042959753 0.031706586 -0.012437524 0.17253958 -0.011268592 0.14467892
0.09774828 -0.14410014 -0.24744186 0.099709384 -0.030822508 0.093738 -0.07567061 -0.033303667
0.096846364 0.39387378 0.07361894 0.15765308 0.21775444 0.022208918 -0.27948442 -0.009688002
-0.012364189 0.012282166 0.0011292758 -0.13607702 0.021195909 -0.028534608 -0.16355419 -0.024282739
-0.3740744 -0.172028 0.021456307 -0.05589873 -0.0019881586 0.15097147 0.03652359 0.018321112
-0.00874176 -0.01189672 0.19581896 -0.28797793 -0.121657446 0.015080362 -0.03449999 0.124998786
0.07790621 -0.26132354 -0.01757 -0.21021251 0.07277647 -0.051306475 -0.63161397 0.2919651
-0.07430852 -0.09151995 0.0665504 -0.38718858 0.29057637 -0.3693111 -0.097542554 -0.0535538
0.07098594 -0.03131915 -0.004146707 0.2602507 0.39680007 -0.0845952 0.11253006 -0.24546668
-0.18473037 0.07957013 -0.010376318 -0.11729073 0.10341086 0.13513523 0.76472956 -0.19883528
00000000: 437f 6fbd dafe 06be 8b24 673d 261e ee3d
00000010: c06b 85bd 3198 da3d 56d0 a03d bf11 20be
00000020: 1f86 d73d 783f 7e3e 2399 8bbd d029 063e
00000030: 1ab7 b2bd f190 2bbd 8fb9 353d be71 bb3d
00000040: 72c0 5c3d dc80 aebd 95ed d2bd e1ae 303d
00000050: 4ec3 0b3e 52c6 39be 116d a2bd 4738 15be
00000060: ddfa 2d3d a572 223e cd12 b4be da16 533e
00000070: b14f 133d bd6b ba3b f807 4b3e dfd0 963d
00000080: 239d d33d 8ddc 36b9 33a7 4ebd db7c 8a3d
00000090: e03d 3f3e 0598 e3bd 82ca 0cbe df21 c63c
000000a0: 6a5f 44bc 56ab 64bd 0b10 d4bd 8839 b73d
000000b0: 93b0 c6bd d086 0abd e1cc 553d 9e5c 37be
000000c0: 22cb 0e3d 2f53 debc de2b 42bc 9d6c 1bbe
000000d0: 402c 1d3e 069f cbbe d50d 41be 2d44 5cbd
000000e0: 45dc a2bd c1f5 35be bd6b b3bd f2ba 613c
000000f0: 1834 cc3d 3caf 81bc f4de 0b3d f699 c3bd
00000100: bcfb 5cbd b11b b4bd 5991 d4bd 35bd 5c3e
00000110: b9d9 3cbc 4ea6 51bd 7fa9 cabd bf17 a33d
00000120: b8c5 89bc fd0a b6bc fdb5 4c3d d5ec 03be
00000130: 30d4 563d 2e8f a6bd 625e 01be 752e b6bd
00000140: fcf8 9ebd be0c 27bd 3867 bbbd fe3d f83d
00000150: 7cb6 913d cb47 593e d177 00bd 89d0 963d
00000160: 79f8 e53d ac46 01ba c7f4 523d 2b40 0abe
00000170: 5830 0d3e 9191 143d 9b3d 283d 0e7d 0b3e
00000180: 7008 873d 85fc bb3d 94b6 993b da68 133e
00000190: 9900 83bd 257a 8bbd 10f8 783d 7018 2cbe
000001a0: 5026 48be bea8 553d 83dd dd3e 87c6 8bbd
000001b0: 32e8 91bd 52f4 403d 91d1 45be 62f1 db3d
000001c0: 0be1 67bd 5425 d8bc f2d9 84bd 1e8e 38bd
000001d0: 04d4 a23d 4d7d 44bd e7ce a73d cdcc 083d
000001e0: 36c3 833d 8708 d2be cc38 4cbe 964b a3bc
000001f0: c6a1 e5bb 484e d3bd 254e a13d 652a a73e
00000200: 8b2d 3dbd 2db7 383d 3767 66be efbc 5a3d
00000210: 4a2c 253e 3477 41be b306 83bd de76 893e
00000220: c611 99bd b434 133e cf8a 8fbd 6f82 3dbe
00000230: 2a87 bb3e 79bb 7abe bfed d33d ef3e 15be
00000240: 5156 c6be e355 59bd 0093 81be e38c 23bc
00000250: ef68 d2bc fa39 d63c 54b0 833d c038 88bd
00000260: 1b86 9a3d 905e fc3b a42a 7c3d 4658 babc
00000270: ed60 4e3d 81b4 933d 49ca b53d fd55 9f3c
00000280: 5deb 943d 79e5 393d 09f0 823c 5657 983d
00000290: d1a2 be3d d6f7 efbc 01c3 15be 25dd 19bf
000002a0: e2f1 383e c760 48bc bf52 8fbc 28c9 813d
000002b0: b483 733c 6db6 80bc b6ac 50be 7e64 c73d
000002c0: 4e7a b43d fb91 683d 91f6 2fbd c4de 013d
000002d0: c2c6 4bbc 37ae 303e e79f 38bc b626 143e
000002e0: 4030 c83d fd8e 13be 6661 7dbe 6f34 cc3d
000002f0: 7c7f fcbc b5f9 bf3d 31f9 9abd 6d69 08bd
00000300: 6357 c63d d3a9 c93e 87c5 963d cf6f 213e
00000310: 05fb 5e3e 7aef b53c 9518 8fbe 6dba 1ebc
00000320: 2b93 4abc 233b 493c 3504 943a c657 0bbe
00000330: 0ba3 ad3c 69c1 e9bc c07a 27be 98ec c6bc
00000340: ae86 bfbe 1c28 30be 23c5 af3c 11f6 64bd
00000350: c44b 02bb 4498 1a3e c399 153d 2816 963c
00000360: 9939 0fbc 76ea 42bc c484 483e d871 93be
00000370: 8a27 f9bd 9f13 773c dd4f 0dbd 5dff ff3d
00000380: 4b8d 9f3d 33cc 85be f6ee 8fbc f341 57be
00000390: d40b 953d bd26 52bd 74b1 21bf 737c 953e
000003a0: 112f 98bd d06e bbbd 934b 883d 953d c6be
000003b0: 6dc6 943e 5816 bdbe 64c4 c7bd 3b5b 5bbd
000003c0: 1461 913d 8248 00bd 19e1 87bb 943f 853e
000003d0: 6129 cb3e 4040 adbd 2976 e63d 9e5b 7bbe
000003e0: f529 3dbe aaf5 a23d 6f01 2abc 1f36 f0bd
000003f0: 13c9 d33d e460 0a3e 51c5 433f 7a9b 4bbe

convs.2.lin_l.bias f4 [114]
0.037823956 0.07795036 0.02486743 0.008320042 0.09555854 -0.09457002 0.11956864 0.06430031
0.060394168 0.063812405 0.04285146 0.10657308 0.027176738 0.06889891 0.11115664 0.09692231
0.0867923 0.11360045 0.047650017 0.08868215 0.07715716 0.1657226 -0.022004943 -0.06787479
-0.045718033 0.11962386 0.08287814 0.021552114 0.13620198 0.09692176 0.103480645 0.1103622
-0.036008544 0.02946416 0.06364613 0.08441119 0.1282634 0.06117751 0.059731606 -0.1155552
0.07993179 0.07169143 0.065494396 0.10165025 0.02726633 -0.079895616 0.027197551 0.04150832
-0.10126278 0.07637916 0.019575361 0.08820147 0.01820673 -0.0959426 -0.0384745 0.019376544
0.075272076 -0.106393896 0.008284268 0.08998926 0.057744488 0.056027327 0.04803564 0.09026092
0.110351495 -0.10836241 0.109515816 -0.10982427 -0.056031495 0.06037876 0.12767094 0.09156281
0.043932896 0.10177658 0.10414255 0.05263548 0.087697834 -0.06924699 0.0451453 0.04204805
0.037838 0.060885288 0.115054816 0.04005454 0.055263173 -0.053805362 0.10605822 -0.058896665
-0.10115616 0.1310821 0.05752041 0.10543883 0.101109825 0.1203036 -0.032660782 -0.10461432
0.089625485 -0.040169124 0.054800846 -0.08294879 -0.11563314 0.006091478 0.094900385 0.04509142
0.08362929 -0.07225549 0.076267 -0.0647594 -0.083864935 0.042319506 0.074026056 0.040450186
0.005930582 -0.046349008
00000000: 4bed 1a3d 70a4 9f3d c8b6 cb3c c950 083c
00000010: 32b4 c33d edad c1bd 67e0 f43d e2af 833d
00000020: e05f 773d 14b0 823d 0385 2f3d fd42 da3d
00000030: c0a1 de3c df1a 8d3d 18a6 e33d 347f c63d
00000040: 29c0 b13d 5aa7 e83d aa2c 433d fd9e b53d
00000050: 9304 9e3d 2fb3 293e b643 b4bc f001 8bbd
00000060: d542 3bbd 5bfd f43d 04bc a93d 0f8e b03c
00000070: 8878 0b3e ea7e c63d a9ed d33d 9405 e23d
00000080: b27d 13bd d25e f13c e758 823d c6df ac3d
00000090: 7b57 033e 4595 7a3d 21a9 743d 34a8 ecbd
000000a0: 47b3 a33d f5d2 923d ed21 863d 022e d03d
000000b0: a35d df3c 50a0 a3bd 66cd de3c a104 2a3d
000000c0: dc62 cfbd ad6c 9c3d 825c a03c f9a2 b43d
000000d0: 4826 953c 8e7d c4bd 7097 1dbd 8fbb 9e3c
000000e0: 3f28 9a3d 0be5 d9bd bdba 073c 4a4c b83d
000000f0: 7c85 6c3d e97c 653d 05c1 443d b8da b83d
00000100: f7ff e13d 1ced ddbd d449 e03d 8ceb e0bd
00000110: 4881 65bd b84f 773d 2cbc 023e 4885 bb3d
00000120: fbf2 333d 3d70 d03d b048 d53d 4d98 573d
00000130: ec9a b33d 5ed1 8dbd 47ea 383d 933a 2c3d
00000140: 05fc 1a3d da62 793d dca1 eb3d 3b10 243d
00000150: a35b 623d 0363 5cbd 0d35 d93d a13d 71bd
00000160: f62a cfbd 633a 063e 859a 6b3d 50f0 d73d
00000170: ab12 cf3d bc61 f63d 50c7 05bd 0840 d6bd
00000180: 918d b73d 6188 24bd da76 603d 0ee1 a9bd
00000190: 11d1 ecbd 059b c73b 225b c23d c8b1 383d
000001a0: d545 ab3d b0fa 93bd df31 9c3d 94a0 84bd
000001b0: 61c1 abbd 3857 2d3d f99a 973d 18af 253d
000001c0: 5455 c23b 75d8 3dbd

convs.2.lin_r.weight f4 [114, 114]
0.05491088 0.03305763 0.060117453 -0.008688032 -0.08876866 0.012403009 -0.07796858 -0.18727306
-0.030799828 0.064490944 -0.047488604 0.06753898 0.052284088 0.03157836 -0.073845394 0.03437383
0.014576575 -0.035064235 0.084595956 -0.022812892 0.08505739 0.017629318 0.068531856 -0.10354236
0.06963389 0.0978921 -0.22020735 -0.00039113656 0.09286409 0.006799261 0.077099636 0.058411017
-0.054907665 0.11288979 0.07606153 -0.05702041 0.09087177 0.065525465 -0.02449606 -0.05021505
-0.04755713 -0.04231171 0.021142924 -0.10941943 0.049406905 0.102458164 0.09890767 -0.019378945
0.05993009 0.06927344 -0.01802405 0.03948539 0.06663704 -0.19747102 -0.033050332 -0.046784174
-0.008738982 0.028895682 0.055481438 0.037633512 0.0379462 -0.11039002 -0.0579718 0.0025972375
0.028340543 -0.007722101 0.033819687 0.15421978 0.14114922 0.08072064 0.05965125 0.05283992
0.13692756 0.056324672 0.048981693 0.058066662 0.047755156 -0.023825455 -0.10003799 -0.019062689
0.024016485 -0.055102795 0.051010653 0.109202445 -0.016469052 -0.10820237 -0.043060582 0.1696302
0.09214648 -0.045891933 -0.060089473 0.12584461 0.012964612 0.058245122 0.048549384 0.006673434
0.06469177 -0.004707286 -0.061472833 0.07865834 -0.04844116 -0.048281826 -0.040812813 -0.015201037
-0.022378152 -0.03640714 0.3035792 0.060574897 -0.04210782 0.033188418 -0.004817589 -0.027541684
-0.0205351 0.09591317 -0.058194272 0.007856523 0.10910774 0.0053733443 -0.021352803 0.025086874
0.08598366 -0.121306665 -0.012736865 0.029277654 -0.11904096 0.1264505 0.057319116 -0.11518226
0.037023883 0.06775217 -0.042494994 -0.0028938858 -0.084938064 0.052057676 0.037271053 0.1918157
0.009851189 0.04836593 -0.013010623 0.018602392 -0.06400838 -0.0051059 -0.01950327 -0.09058568
-0.20622551 -0.08753922 -0.039969023 0.0003652349 0.035700247 0.05855236 -0.06546894 -0.12123101
-0.08752335 -0.01833696 -0.06779956 0.042515624 -0.06712156 0.05456266 -0.16366443 0.018453844
0.039290484 -0.023149392 -0.09334425 0.051752254 -0.025982076 -0.025559716 -0.06163352 -0.24351296
-0.115632914 -0.058764998 -0.026915919 0.06312552 -0.014482999 0.033086836 -0.012615222 0.0765391
0.13280037 0.064063124 0.03359149 -0.054586258 0.05323296 0.1242962 -0.10283726 -0.0022592815
-0.074344285 0.023949584 -0.016996311 0.008973125 0.017217597 -0.052442368 -0.007168987 0.07315915
-0.03800306 0.17622207 -0.08843126 0.04330868 0.10194785 0.05884413 -0.004963029 0.056869026
0.13058744 -0.030646896 0.005202851 -0.01910478 -0.0028648498 -0.07429395 0.054059874 0.07039849
-0.10214713 0.124976724 -0.02696297 -0.010218459 0.06853805 0.08998742 -0.052210554 -0.053240806
0.01827102 0.09095089 -0.010548657 0.037676357 -0.088674985 -0.078348644 0.056193974 -0.0092425095
-0.102801874 -0.020691836 -0.09587781 -0.06436814 -0.05246472 0.048701737 -0.2153982 0.10236808
0.018946785 0.08919054 -0.01746111 -0.4908397 0.2783065 -0.082812406 0.08062699 -0.27387795
-0.08344573 0.054955315 0.076376 0.2492119 0.16555293 0.0019462402 -0.08953761 -0.25797403
-0.022619314 0.114896215 -0.06462327 -0.011357342 -0.07671492 -0.08141478 0.2638683 0.0291769
00000000: 3bea 603d 7067 073d b83d 763d 3f58 0ebc
00000010: 58cc b5bd fe35 4b3c fead 9fbd 82c4 3fbe
00000020: ec4f fcbc d413 843d 6983 42bd e051 8a3d
00000030: d727 563d 4f58 013d 413c 97bd 93cb 0c3d
00000040: 96d2 6e3c 849f 0fbd a540 ad3d 1ae2 babc
00000050: 9232 ae3d 5c6b 903c 6e5a 8c3d 040e d4bd
00000060: 379c 8e3d a77b c83d 097e 61be 7611 cdb9
00000070: 872f be3d 56cc de3b 6ae6 9d3d 6440 6f3d
00000080: dce6 60bd c332 e73d 26c6 9b3d 3c8e 69bd
00000090: fb1a ba3d 3732 863d f6ab c8bc 4cae 4dbd
000000a0: 44cb 42bd 0b4f 2dbd ed33 ad3c 4b17 e0bd
000000b0: e55e 4a3d 96d5 d13d 1b90 ca3d 98c0 9ebc
000000c0: 4179 753d 3cdf 8d3d 2ca7 93bc 6fbb 213d
000000d0: 0079 883d d835 4abe c95f 07bd c3a0 3fbd
000000e0: f22d 0fbc a3b6 ec3c 8140 633d 9925 1a3d
000000f0: 7a6d 1b3d 2a14 e2bd d773 6dbd 6a36 2a3b
00000100: 6d2a e83c ae09 fdbb 8386 0a3d caeb 1d3e
00000110: 6c89 103e dd50 a53d de54 743d ac6e 583d
00000120: bd36 0c3e b3b4 663d 07a1 483d 4fd7 6d3d
00000130: e99a 433d 9a2d c3bc b8e0 ccbd 5b29 9cbc
00000140: 38be c43c 78b3 61bd 8cf0 503d 88a5 df3d
00000150: 1bea 86bc 3499 ddbd 4b60 30bd 8ab3 2d3e
00000160: 4bb7 bc3d 2ef9 3bbd 6120 76bd 69dd 003e
00000170: 8669 543c 7092 6e3d b8db 463d d2ac da3b
00000180: 1e7d 843d 943f 9abb f0ca 7bbd a017 a13d
00000190: 3d6a 46bd 2ac3 45bd 562b 27bd c50d 79bc
000001a0: 6352 b7bc a71f 15bd bc6e 9b3e 621d 783d
000001b0: 4079 2cbd 94f0 073d dedc 9dbb 199f e1bc
000001c0: 3a39 a8bc 206e c43d 1e5d 6ebd a5b8 003c
000001d0: e173 df3d e112 b03b 13ec aebc fd82 cd3c
000001e0: 3318 b03d a16f f8bd 49ae 50bc b1d7 ef3c
000001f0: bfcb f3bd 3d7c 013e 73c7 6a3d ade4 ebbd
00000200: 5ba6 173d a6c1 8a3d 3b0f 2ebd 59a7 3dbb
00000210: 02f4 adbd 6e3a 553d 88a9 183d 566b 443e
00000220: e266 213c 5a1b 463d 822a 55bc 0b64 983c
00000230: d316 83bd 654f a7bb 52c5 9fbc fc84 b9bd
00000240: c82c 53be c347 b3bd 8fb6 23bd 007d bf39
00000250: 6c3a 123d 99d4 6f3d 9414 86bd f747 f8bd
00000260: 713f b3bd 6437 96bc 7fda 8abd dd24 2e3d
00000270: 0777 89bd 197d 5f3d a697 27be 842c 973c
00000280: 0fef 203d cba3 bdbc 452b bfbd 2cfa 533d
00000290: 5dd8 d4bc 9c62 d1bc 6e73 7cbd 765b 79be
000002a0: f3d0 ecbd 91b3 70bd c67e dcbc f447 813d
000002b0: 1a4a 6dbc 1086 073d 13b0 4ebc 88c0 9c3d
000002c0: d2fc 073e 8733 833d 3b97 093d d795 5fbd
000002d0: ce0a 5a3d 028f fe3d 579c d2bd 7410 14bb
000002e0: d141 98bd eb31 c43c d93b 8bbc 0404 133c
000002f0: eb0b 8d3c cfcd 56bd d2e9 eabb 77d4 953d
00000300: 19a9 1bbd 8f73 343e 731b b5bd 7164 313d
00000310: 09ca d03d 8b06 713d e8a0 a2bb 7fef 683d
00000320: b7b8 053e 330f fbbc ad7c aa3b a181 9cbc
00000330: 34c0 3bbb 6d27 98bd e36d 5d3d 152d 903d
00000340: 8432 d1bd ccf3 ff3d 72e1 dcbc 536b 27bc
00000350: ad5d 8c3d 534b b83d bcda 55bd 0813 5abd
00000360: 1bad 953c 7644 ba3d 46d4 2cbc 8652 1a3d
00000370: 3b9b b5bd 4175 a0bd a72b 663d e56d 17bc
00000380: ca89 d2bd ed81 a9bc 965b c4bd 72d3 83bd
00000390: 3fe5 56bd 797b 473d 5991 5cbe 5ba6 d13d
000003a0: 4a36 9b3c 88a9 b63d 9a0a 8fbc 574f fbbe
000003b0: 317e 8e3e 8d99 a9bd c31f a53d bb39 8cbe
000003c0: 98e5 aabd d318 613d 056b 9c3d 6831 7f3e
000003d0: b586 293e fc18 ff3a 7f5f b7bd 2c15 84be
000003e0: 244c b9bc b54e eb3d 3459 84bd 2514 3abc
000003f0: b61c 9dbd cbbc a6bd bf19 873e 6504 ef3c
