saved_model/model_4.pth (torch, 131189 bytes, 11 tensors)

convs.0.lin_l.weight f4 [86, 10]
0	0x3d1592b7	0.03651687
1	0x3e933678	0.28752494
2	0x3c3341de	0.010940997
3	0xbdc2d409	-0.09513099
4	0x3e9fbca4	0.3119861
5	0x3da3f785	0.08006195
6	0xbe4a09c5	-0.1973029
7	0x3c585780	0.013204455
8	0xbe051953	-0.12997942
9	0xbe31d87f	-0.17367743
10	0xbe31c88f	-0.17361663
11	0x3c9d82ad	0.01922735
12	0x3e2c09b6	0.1680058
13	0xbdb1ac58	-0.0867545
14	0x3e5d6270	0.21619582
15	0xbe0955ff	-0.13411711
16	0xbe85afea	-0.26110774
17	0x3e6b32e5	0.22968633
18	0x3dcba64c	0.09943828
19	0x3d179954	0.03701146
20	0x3e6aeb37	0.2294129
21	0x3e239bdc	0.15977424
22	0x3de1f756	0.11033504
23	0xbe458969	-0.19290699
24	0xbec6547c	-0.3873633
25	0x3e9720c3	0.29517183
26	0xbe1a2281	-0.15052225
27	0xbe6a03cd	-0.22853012
28	0x3e9772a6	0.29579657
29	0xbda7fb17	-0.082021885
30	0xbcbf74cd	-0.023371125
31	0xbde87a68	-0.11351472
32	0xbe9297e6	-0.28631514
33	0xbd603fa2	-0.054748185
34	0x3dc86ffe	0.09786986
35	0xbe99f8da	-0.3007267
36	0x3ded0fde	0.11575292
37	0x3cf8c32f	0.030366508
38	0x3e02f81e	0.12789962
39	0x3de7445f	0.112923376
40	0x3d57d5e2	0.05269421
41	0x3d027f03	0.03185941
42	0xbe9506fa	-0.29106885
43	0xbe4d6822	-0.20059255
44	0x3d95c800	0.073135376
45	0xbe598776	-0.2124308
46	0xbe94fc20	-0.29098606
47	0x3dc530f1	0.096284755
48	0x3e1764e5	0.14784582
49	0xbe3e313c	-0.18573469
50	0x3da63074	0.081147105
51	0x3e0fcb51	0.14042403
52	0xba21376d	-0.00061499217
53	0xbec03039	-0.3753679
54	0x3e0ce251	0.13758208
55	0x3e24fd78	0.16112316
56	0xbe523ca8	-0.20530951
57	0x3d2cbfd8	0.042175144
58	0x3e916e49	0.28404453
59	0x3e0bbf67	0.13647233
60	0xbe634179	-0.22192945
61	0xbe040cd9	-0.12895526
62	0xbca8d205	-0.020607958
63	0x3e47d30f	0.19514106
64	0x3e78e288	0.24305165
65	0x3d97d083	0.07412817
66	0xbe9a6719	-0.30156782
67	0x3ec25ec0	0.37962914
68	0x3daa4f33	0.08315887
69	0xbda237f5	-0.07920829
70	0x3dd2efe7	0.10299664
71	0xbe504a58	-0.2034086
72	0x3e1c1604	0.15242773
73	0xbe981380	-0.29702377
74	0xbca4598d	-0.020062232
75	0xbe854686	-0.26030368
76	0xbd95b34f	-0.07309591
77	0xbccbf852	-0.024898682
78	0x3e853cf8	0.26023078
79	0x3cebe41e	0.028795298
80	0x3db75eba	0.089536145
81	0x3e401abe	0.18760201
82	0xbe8c61be	-0.2741832
83	0x3e700656	0.23439917
84	0xbd6f716e	-0.058457784
85	0xbddc508c	-0.107575506
86	0xbe194de2	-0.14971116
87	0xbe434169	-0.1906792
88	0xbe829a5c	-0.25508392
89	0x3e46aef1	0.19402672
90	0xbe9cc28f	-0.30617186
91	0x3d8c865a	0.06861563
92	0x3e4fe00b	0.2030031
93	0xbe9b2fb9	-0.30309847
94	0xbe1fa64f	-0.15590785
95	0xbe7a19dd	-0.24423929
96	0x3e5494b2	0.20759848
97	0xbdf0581b	-0.11735555
98	0xbe889458	-0.26675677
99	0xbea442ed	-0.3208231
100	0x3e70c593	0.23512869
101	0x3e5b3abb	0.21409123
102	0x3c711700	0.014714956
103	0x3cd06592	0.025439057
104	0xbe82353f	-0.2543125
105	0xbe208ef5	-0.15679534
106	0xbbaf6874	-0.005353028
107	0x3be6206d	0.0070229084
108	0x3c7aa82d	0.015298885
109	0x3e9c5cb3	0.30539474
110	0xbca5f406	-0.020257961
111	0x3e8abd71	0.27097657
112	0xbe746791	-0.23867632
113	0xbe32e19f	-0.1746888
114	0xbe95c110	-0.29248857
115	0x3e290c20	0.16508532
116	0x3e5a1c8e	0.21299955
117	0xbdd566de	-0.10420011
118	0xbe81b778	-0.25335288
119	0xbd7225aa	-0.05911795
120	0xbe961f74	-0.29320872
121	0xbe9dadc2	-0.3079663
122	0x3e629fe8	0.22131312
123	0x3e1a5e11	0.15074946
124	0xbe58da08	-0.21176922
125	0x3dcfe86a	0.10151751
126	0xbc880372	-0.016603205
127	0xbe698461	-0.22804405
128	0x3e498ac8	0.19681847
129	0xbd9e35ae	-0.07725082
130	0x3cd44329	0.02591093
131	0xbe4e52b7	-0.2014874
132	0x3d03e763	0.03220309
133	0xbd809e92	-0.06280245
134	0xbe9076ef	-0.2821574
135	0x3e117737	0.14205633
136	0xbe22b35c	-0.15888733
137	0x3e9332c5	0.28749672
138	0x3d4f410d	0.050599147
139	0x3e6da08e	0.23205778
140	0xbdf0aca2	-0.11751677
141	0xbe1d896d	-0.15384455
142	0xbea114b3	-0.31461105
143	0xbe6ac7a7	-0.22927724
144	0xbdfa8914	-0.12233177
145	0xbe9a5266	-0.3014099
146	0x3dbc3bc6	0.091910884
147	0xbc0d462e	-0.008622689
148	0x3e9f75b0	0.31144476
149	0xbe235c18	-0.159531
150	0xbe2f8e4f	-0.1714413
151	0xbda99594	-0.08280483
152	0x3e0e8831	0.1391914
153	0x3e554fa0	0.20831156
154	0xbbf0e2a9	-0.0073512387
155	0xbe96e674	-0.29472697
156	0x3d7f604b	0.06234769
157	0x3d8a2ead	0.06747184
158	0xbe091be1	-0.13389541
159	0x3c33a8e8	0.010965563
160	0xbe00664f	-0.12539028
161	0xbe5d2871	-0.21597458
162	0xbe37daff	-0.17954634
163	0xbdc8f271	-0.09811867
164	0x3e37c1f5	0.17945082
165	0x3db52787	0.0884543
166	0x3e7550e4	0.23956639
167	0x3da842d4	0.082158715
168	0x3dba2d79	0.090907045
169	0xbd7e4057	-0.062073078
170	0xbe265d0b	-0.1624643
171	0xbe397cb9	-0.18113984
172	0x3c8fb956	0.01754443
173	0xbdb39fbf	-0.087707035
174	0x3de6c459	0.11267919
175	0xbb962998	-0.004582595
176	0x3e25cdff	0.16191863
177	0xbe902190	-0.28150606
178	0x3ddd0dbb	0.107936345
179	0xbd279bff	-0.040920254
180	0xbda63e58	-0.0811736
181	0x3e45c53c	0.1931352
182	0x3e08097c	0.13284868
183	0x3e5434a5	0.20723207
184	0x3da66edc	0.081266135
185	0x3e1ccf3e	0.15313432
186	0xbe830bcc	-0.25594938
187	0x3e43b08c	0.19110316
188	0x3d872b3d	0.06600044
189	0x3e839c3a	0.2570513
190	0x3e78028b	0.2421972
191	0x3e5f6781	0.21816827
192	0x3dd39876	0.10331814
193	0xbd78650e	-0.06064325
194	0x3e83c8bc	0.25739086
195	0xbeaafea5	-0.33397403
196	0xbe192b5f	-0.14957951
197	0x3eb91e5b	0.36155972
198	0x3e05c7db	0.1306452
199	0xbe4a1e14	-0.19738036
200	0xbe986810	-0.29766893
201	0xbea175f4	-0.31535304
202	0x3e19b6f0	0.15011191
203	0xbe0f9d2c	-0.140248
204	0xbe8d37c7	-0.27581617
205	0x3e79d259	0.24396648
206	0x3dbe3697	0.09287756
207	0x3d88da2a	0.066822365
208	0x3e227556	0.15865073
209	0xbe92b3e3	-0.28652868
210	0xbe036bf2	-0.12834147
211	0xbe4f512e	-0.20245811
212	0xbdaca8ef	-0.08430659
213	0xbe85be8b	-0.26121935
214	0x3e5e3714	0.21700698
215	0x3e947263	0.2899352
216	0x3d02baf4	0.031916574
217	0x3e9b8521	0.30375007
218	0xbe8c7cba	-0.2743891
219	0xbc95c4a4	-0.018282242
220	0x3d8a38c7	0.06749111
221	0xbe032856	-0.12808356
222	0xbc4b3031	-0.012401626
223	0xbdebac0c	-0.11507425
224	0xbe7d7233	-0.24750595
225	0x3e8bc665	0.272998
226	0xbe3e7b9e	-0.18601844
227	0x3e31cf25	0.17364176
228	0xbe95625b	-0.29176602
229	0x3ea2f777	0.31829426
230	0x3e360559	0.17775477
231	0x3bc9a9d1	0.006154277
232	0xbe47f683	-0.1952763
233	0xbdf13d6d	-0.11779294
234	0xbe91452a	-0.2837308
235	0x3db5ccb6	0.08876936
236	0x3e9af973	0.3026844
237	0xbe81e23a	-0.2536791
238	0x3b0f7fff	0.002189636
239	0xbdd98499	-0.10620994
240	0xbea2ac16	-0.31771916
241	0xbd43a664	-0.047766104
242	0xbe0c7d3e	-0.13719651
243	0xbeb074ef	-0.34464213
244	0x3e82a387	0.25515386
245	0x3e71d529	0.2361647
246	0x3c272520	0.010201722
247	0xbe4587a7	-0.19290029
248	0x3e98083e	0.29693788
249	0x3d8a7955	0.067614235
250	0xbc905074	-0.017616488
251	0xbe983e10	-0.2973485
252	0xbe7079e4	-0.23483998
253	0xbe436b54	-0.19083911
254	0x3e36157f	0.17781638
255	0xbddc3817	-0.10752886

convs.0.lin_l.bias f4 [86]
0	0xbe18d31b	-0.1492428
1	0xbded76db	-0.115949355
2	0xbd877f64	-0.06616095
3	0x3e259963	0.16171794
4	0xbdfea2f9	-0.12433428
5	0x3db20045	0.08691458
6	0x3e08062e	0.13283607
7	0xbe229eec	-0.15880936
8	0xbe928d9c	-0.28623664
9	0xbe224ff8	-0.15850818
10	0xbcf452f6	-0.029824715
11	0xbe40fbf9	-0.1884612
12	0xbe6f29b8	-0.23355758
13	0xbcddf97b	-0.0270965
14	0xbe8a80ea	-0.2705148
15	0x3e65c00e	0.22436544
16	0x3c904378	0.017610297
17	0xbdd4b555	-0.10386149
18	0xbe29a620	-0.16567278
19	0xbdb0a6ee	-0.08625589
20	0x3e07ccdd	0.13261743
21	0x3e64583f	0.22299288
22	0x3b0059a7	0.0019584687
23	0x3e1a8c9e	0.15092704
24	0x3e5acccd	0.21367188
25	0xbdd978d7	-0.106187515
26	0xbd8d6bdf	-0.069053404
27	0x3d1a4b5b	0.03766952
28	0xbe8d0efb	-0.27550492
29	0x3e17846b	0.14796607
30	0xbe044220	-0.1291585
31	0xbd166dbe	-0.036725752
32	0x3e7c1832	0.24618605
33	0x3e8c6eae	0.27428192
34	0xbc1ffad1	-0.009764389
35	0x3e0de436	0.13856587
36	0xbc5b1692	-0.01337208
37	0xbe79d048	-0.24395859
38	0xbc9a7ace	-0.018857386
39	0xbe025fe5	-0.12731893
40	0xbe849e41	-0.25901988
41	0xbe10d2f5	-0.14142974
42	0x3caee9ec	0.021351777
43	0xbe45ca14	-0.19315368
44	0xbe2e1f89	-0.17004217
45	0x3bc65e34	0.0060537104
46	0x3e6b66da	0.22988454
47	0xbe9a4786	-0.30132693
48	0x3e3e691b	0.18594782
49	0xbe60e34d	-0.21961708
50	0xbe1055fb	-0.14095299
51	0x3e90a18b	0.28248248
52	0x3cc6fb31	0.0242897
53	0x3d9fda1d	0.07805274
54	0xbe916cbe	-0.28403276
55	0x3e876bf9	0.26449564
56	0x3de2f2a3	0.110814355
57	0x3e5aaf75	0.21355994
58	0xbea4e25b	-0.32203946
59	0x3deaae5c	0.11459038
60	0xbe0b9e4c	-0.13634604
61	0x3e9e6bcd	0.3094162
62	0xbe27201f	-0.16320847
63	0x3e225396	0.15852198
64	0x3d66a2eb	0.056307714
65	0xbe3d20f2	-0.18469599
66	0x3d745b80	0.059657574
67	0xbe3c7c45	-0.1840678
68	0x3c84574f	0.016154913
69	0x3d3d2ddb	0.04618631
70	0x3e21c618	0.15798223
71	0xbe86a223	-0.26295575
72	0xbe83eb90	-0.25765657
73	0x3db543ea	0.08850844
74	0x3e8e438b	0.27785906
75	0x3dfc60fe	0.12323187
76	0xbe847d64	-0.25876915
77	0xbe1cca63	-0.1531158
78	0x3d1e1a6d	0.03859942
79	0xbd398196	-0.0452896
80	0x3e794610	0.24343133
81	0x3c63aada	0.013895715
82	0x3d00b22d	0.03141992
83	0x3e0f4243	0.1399012
84	0x3e48a21a	0.19593087
85	0x3ca6776e	0.02032062

convs.0.lin_r.weight f4 [86, 10]
0	0x3e67f39c	0.22651523
1	0xbe9171aa	-0.2840703
2	0xbd935d61	-0.07195545
3	0xbd885276	-0.06656353
4	0xbc6142aa	-0.013748804
5	0x3e147f50	0.14501691
6	0x3bd1bb0c	0.0064004716
7	0xbe1a0cf4	-0.15044004
8	0x3e0b2540	0.13588428
9	0xbe448e39	-0.19194879
10	0xbe1cd75f	-0.15316533
11	0x3e1d0e3c	0.15337461
12	0xbe10d4f2	-0.14143732
13	0xbe70dd7b	-0.23521988
14	0x3e40816b	0.18799369
15	0x3df62613	0.12018981
16	0xbe7935b0	-0.24336886
17	0xbe09af2c	-0.13445729
18	0xbd9c4f62	-0.076323286
19	0xbdc886b2	-0.09791316
20	0x3e4221aa	0.18958154
21	0xbc6d3acb	-0.014479349
22	0x3e869f42	0.2629338
23	0x3e51d2ee	0.2049062
24	0xbe4c14f2	-0.19929865
25	0xbdadc9dd	-0.08485768
26	0x3cb3ef1b	0.0219646
27	0xbeb1f115	-0.34754243
28	0x3dd35031	0.1031803
29	0x3e367c25	0.17820795
30	0xbe93d96d	-0.2887682
31	0xbd626dd4	-0.05528052
32	0x3e6dc6c7	0.23220359
33	0xbe7ef41b	-0.24897806
34	0xbe28e38b	-0.16493051
35	0x3dd1bfff	0.102416985
36	0xbd926c2d	-0.07149539
37	0xbd168cab	-0.036755245
38	0x3d726de7	0.059186842
39	0x3e1b72b1	0.1518047
40	0x3e60662c	0.21913975
41	0xbcba4f22	-0.022742812
42	0xbe9a0846	-0.30084437
43	0x3e3ceba6	0.18449268
44	0xbd986824	-0.07441738
45	0xbe34fc2c	-0.17674321
46	0xbe8548fe	-0.2603225
47	0x3ddab143	0.10678341
48	0xbcd00e2a	-0.025397379
49	0xbe411bd9	-0.1885828
50	0xbe19966c	-0.14998788
51	0xbe749190	-0.23883653
52	0xbe92c9de	-0.28669637
53	0x3d1a86c3	0.037726175
54	0xbe246c68	-0.16056979
55	0xbda7ae6a	-0.08187564
56	0x3e01634e	0.12635538
57	0x3e544dac	0.20732754
58	0x3bd1f91b	0.0064078695
59	0x3e5fe35e	0.21864077
60	0xbe0629c5	-0.13101871
61	0xbe400358	-0.18751276
62	0x3d3c91d4	0.04603751
63	0x3d46c3ff	0.04852676
64	0x3e2396f6	0.15975556
65	0x3e546a53	0.20743684
66	0x3e143803	0.14474492
67	0x3eac35e7	0.33634874
68	0x3d6b1f1b	0.05740271
69	0x3e34aea5	0.17644747
70	0xbe649c3c	-0.22325224
71	0xbe42fa78	-0.19040859
72	0xbd6c9155	-0.057755787
73	0x3d8d6c20	0.06905389
74	0x3e397395	0.18110497
75	0x3e95d2ba	0.29262334
76	0x3e38592e	0.1800277
77	0xbe72c95a	-0.23709622
78	0xbb6860c4	-0.0035458067
79	0x3c82462c	0.015902601
80	0xbde87e65	-0.11352233
81	0xbe06bfa3	-0.13159041
82	0x3dfc5acd	0.123220064
83	0xbe1d3133	-0.153508
84	0x3e924d7f	0.2857475
85	0xbd5d4840	-0.05402398
86	0x3d5960a8	0.053070694
87	0x3d9726a3	0.07380416
88	0x3d4d5e03	0.050138485
89	0xbe6b28f4	-0.22964841
90	0xbd165d24	-0.03670992
91	0x3e91c1ea	0.28468257
92	0xbe151e2c	-0.14562291
93	0xbd56dabb	-0.05245469
94	0xbe1a59b5	-0.15073283
95	0xbe875f37	-0.2643983
96	0x3e4979ac	0.1967532
97	0x3e31f649	0.17379107
98	0xbd068e54	-0.03285058
99	0xbe0bd0d5	-0.13653882
100	0x3cb6a419	0.022295045
101	0xbdd35233	-0.10318413
102	0x3cb1adf4	0.021689393
103	0xbd68f3bc	-0.05687307
104	0xbe9a5706	-0.3014452
105	0x3e4c7028	0.19964659
106	0xbd640903	-0.055672657
107	0xbd6bcc0d	-0.057567645
108	0x3e3237ac	0.1740405
109	0xbe2c1923	-0.16806464
110	0xbea2ab9a	-0.31771547
111	0x3e42da48	0.1902858
112	0x3c77a1bb	0.015114243
113	0xbd62cd7a	-0.05537174
114	0x3e8c1583	0.27360162
115	0xbe0f86e6	-0.14016303
116	0x3e3d052a	0.18459001
117	0xbe531991	-0.20615222
118	0xbe21d929	-0.15805496
119	0xbe47a66b	-0.19497077
120	0xbb1aef2f	-0.00236411
121	0xbdb9c408	-0.09070593
122	0x3e109a9a	0.14121476
123	0x3deb5a8a	0.11491878
124	0xbe2d5efe	-0.16930768
125	0x3e9e69c9	0.30940083
126	0x3e416d1c	0.18889278
127	0x3e601331	0.21882321
128	0x3a79a1d6	0.00095227116
129	0xbe34a2de	-0.17640254
130	0x3e815f35	0.2526795
131	0xbe16dd92	-0.1473296
132	0x3e3fa496	0.18715128
133	0x3d4f5d98	0.050626367
134	0x3e6380c2	0.22217086
135	0xbe988a2a	-0.2979291
136	0xbd23b610	-0.03996855
137	0xbd7192c1	-0.058977846
138	0x3d5c1d79	0.053739045
139	0x3ca42497	0.020036979
140	0x3e8daace	0.27669376
141	0x3dbb5b50	0.09148276
142	0xbe636bb2	-0.22209051
143	0x3cee943b	0.029123416
144	0xbdf15c98	-0.11785239
145	0xbe968e59	-0.29405478
146	0x3e0fae98	0.14031446
147	0x3e3070ff	0.17230605
148	0x3d8f9b0a	0.07011993
149	0xbdd532ff	-0.10410117
150	0x3daf4c59	0.08559484
151	0xbe765318	-0.24055135
152	0xbdec4b02	-0.11537744
153	0x3e9f0f47	0.31066343
154	0x3e8d3770	0.27581358
155	0xbe5aa335	-0.21351321
156	0xbe92048c	-0.28519094
157	0x3e09dccc	0.13463134
158	0xbde2b3c8	-0.11069447
159	0x3e878857	0.26471207
160	0xbdef3906	-0.11680798
161	0x3e5dc302	0.21656421
162	0xbe593c2f	-0.21214364
163	0xbe63054e	-0.22169992
164	0x3ca68e98	0.020331666
165	0xbd2e3dba	-0.042539336
166	0x3d543161	0.051804904
167	0xbe6f6107	-0.23376857
168	0xbe33c9f7	-0.17557512
169	0x3e7606bd	0.24026008
170	0x3db6cfac	0.08926329
171	0xbe20d0ef	-0.15704702
172	0xbe56d0e1	-0.20978118
173	0x3e535185	0.20636566
174	0xbe94f7b1	-0.29095224
175	0x3e88f5fb	0.26750168
176	0xbe611097	-0.21978985
177	0xbe46c65d	-0.19411607
178	0xbdcd344a	-0.10019739
179	0x3e9974db	0.29971966
180	0xbe855698	-0.26042628
181	0x3e9dd059	0.3082302
182	0xbe90089b	-0.28131565
183	0xbe5f3d07	-0.21800624
184	0x3e3e0316	0.18555865
185	0x3e967444	0.2938558
186	0xbe113a91	-0.14182498
187	0x3e84d369	0.25942543
188	0x3e17f49e	0.14839408
189	0xbe76cb5b	-0.24101011
190	0x3e4d6a6a	0.20060125
191	0x3e6d82c0	0.23194408
192	0xbe2ccdd9	-0.168754
193	0x3e0d7db5	0.13817485
194	0x3d8175b2	0.06321277
195	0xbe8ee2dc	-0.27907455
196	0xbe22a539	-0.1588334
197	0xbdd0873b	-0.10182043
198	0xbe8171ee	-0.25282234
199	0xbc406c5c	-0.011744585
200	0x3a57c19b	0.00082304486
201	0x3e603250	0.21894193
202	0xbe8b8350	-0.2724862
203	0x3dbd3825	0.09239224
204	0xbce5772e	-0.02801093
205	0xbe154501	-0.14577104
206	0xbe314430	-0.17311168
207	0xbdc2523e	-0.09488343
208	0xbe2602cc	-0.16212004
209	0x3e17277f	0.1476116
210	0xbe774b0e	-0.24149725
211	0x3e34ccc7	0.17656241
212	0x3bffa346	0.007801446
213	0xbdade59b	-0.084910594
214	0x3e663438	0.22480857
215	0x3bf0643f	0.007336169
216	0x3e44ca54	0.19217807
217	0x3d3cc5aa	0.046086945
218	0xbe926ab9	-0.28597048
219	0xbe16ed51	-0.14738967
220	0xbdefb2d5	-0.117040314
221	0xbe27c160	-0.1638236
222	0x3da988e4	0.08278063
223	0xbcec55a8	-0.028849438
224	0x3e20d371	0.15705658
225	0x3e7f22d0	0.24915624
226	0xbd98d4e5	-0.074624814
227	0x3e9d11cc	0.3067764
228	0x3e045eae	0.12926742
229	0x3ea27332	0.31728512
230	0x3d6865d5	0.05673774
231	0xbd055559	-0.032552097
232	0x3e5645f7	0.20925127
233	0xbe831022	-0.25598246
234	0x3dca455d	0.09876511
235	0x3e7e34ab	0.24824779
236	0xbe3bed8b	-0.18352334
237	0xbe8b4445	-0.27200523
238	0x3e5bb64e	0.21456262
239	0xbe0c14ba	-0.13679782
240	0x3e69ab62	0.22819284
241	0x3c91112a	0.01770838
242	0xbe8e0269	-0.27736214
243	0xbe0655dd	-0.13118692
244	0x3e47d175	0.19513495
245	0x3e5d1469	0.21589817
246	0x3e185d06	0.14879236
247	0xbe8c617f	-0.27418134
248	0xbd1ea766	-0.038733862
249	0xbe7d8955	-0.2475942
250	0xbd65aa5c	-0.05607067
251	0x3e66ed14	0.22551376
252	0xbc5d00cb	-0.013488959
253	0xbc370d7f	-0.011172651
254	0x3e57b610	0.21065545
255	0xbe898b8a	-0.26864272

convs.1.lin_l.weight f4 [86, 86]
0	0x3ce7a809	0.028278368
1	0x3cac3020	0.021019042
2	0xbd121a64	-0.0356697
3	0xbc83d3f6	-0.016092282
4	0x3c53132a	0.012882987
5	0x3d144bd9	0.036205146
6	0xbd377df4	-0.044797853
7	0xbdb108d2	-0.086442605
8	0x3d6c16b8	0.057638854
9	0x3c284190	0.010269538
10	0x3d78e031	0.06076068
11	0x3e0416b0	0.1289928
12	0x3db9c2de	0.09070371
13	0xbdbf13ec	-0.09329972
14	0x3d629042	0.055313356
15	0xbe6d96e9	-0.23202099
16	0x3de2aeca	0.110684946
17	0xbd7c16b9	-0.061545108
18	0x3ce7bd26	0.028288435
19	0xbd8345d8	-0.06409806
20	0x3bb2f7c6	0.005461666
21	0xbd64f748	-0.05589989
22	0xbd40c582	-0.047063358
23	0x3e3910b1	0.18072774
24	0x3d02d730	0.0319435
25	0x3e823684	0.25432217
26	0xbdd8dc5d	-0.10588906
27	0x3d9f7718	0.07786387
28	0xbbfd89b6	-0.0077373637
29	0xbd86ec9c	-0.065880984
30	0x3c33fa87	0.010985023
31	0x3cb28a4c	0.02179446
32	0x3d70d3dc	0.058795795
33	0x3dfc15ce	0.123088464
34	0x3e00da55	0.12583287
35	0x3dc670c3	0.09689476
36	0xbca57949	-0.020199435
37	0xbd7458d2	-0.05965502
38	0xbc918aa4	-0.017766304
39	0xbd2a5db2	-0.04159326
40	0x3d4fd76a	0.050742544
41	0x3d2889c8	0.041147023
42	0xbc427060	-0.011867613
43	0xbc3f34b5	-0.011670281
44	0xbc85dcef	-0.0163407
45	0x3de91f26	0.11382894
46	0xbc95399f	-0.018215952
47	0xbdbd2bc1	-0.09236861
48	0x3d20475b	0.03913055
49	0x3dd25825	0.102707185
50	0xbdaf175d	-0.08549378
51	0xbe2f03fd	-0.17091365
52	0x3a886717	0.00104067
53	0xbd903ed4	-0.070432335
54	0xbd223237	-0.03959867
55	0xbd26099f	-0.04053652
56	0xbdcd7c1a	-0.10033436
57	0xbd64e080	-0.055878162
58	0x3dd20f2f	0.10256802
59	0xbd9df78f	-0.07713234
60	0xbd112f40	-0.03544545
61	0xbc7f6bf3	-0.015589702
62	0xbddea5f5	-0.108714975
63	0x3d31949b	0.04335461
64	0xbcf7632b	-0.030198654
65	0xbd9a4b8e	-0.07533942
66	0x3d9c0e2e	0.07619892
67	0x3da44fbe	0.08023022
68	0xbcac2b86	-0.021016847
69	0xbca9f3b6	-0.020746093
70	0xbb293ceb	-0.0025823663
71	0x3d542a1d	0.051797975
72	0xbba733d8	-0.005102616
73	0x3d5ff7a1	0.054679517
74	0x3dd48a0a	0.10377891
75	0xbe84a06c	-0.25903642
76	0x3e383dba	0.17992297
77	0xbdc67ed8	-0.09692162
78	0xbd8c09a4	-0.06837776
79	0x3bd04728	0.0063561387
80	0xbd7d6871	-0.06186718
81	0x3d2edc2f	0.042690452
82	0xbd66098a	-0.05616144
83	0xbde25131	-0.11050642
84	0xbd1280be	-0.03576731
85	0x3cb65a3e	0.022259828
86	0xbd3d0d3c	-0.0461552
87	0xbd8ec223	-0.069706224
88	0x3d249f8e	0.040191226
89	0x3d7dbd32	0.06194801
90	0x3da79c10	0.081840634
91	0x3dd80ddb	0.10549518
92	0xbc72fb22	-0.014830383
93	0xbd88091f	-0.06642365
94	0x3c323117	0.010875962
95	0x3d1ae259	0.03781352
96	0xbcf09715	-0.029368917
97	0x3cfd7c77	0.030943139
98	0x3d01d412	0.031696387
99	0x3a532304	0.0008054229
100	0x3d6d99d4	0.05800803
101	0x3e3b2744	0.18276697
102	0xbb2bf84d	-0.0026240528
103	0xbdb27d98	-0.08715361
104	0x3e334011	0.17504908
105	0x3b923ef3	0.0044630705
106	0xbd1229e8	-0.035684496
107	0x3de93bac	0.11388335
108	0x3d54a63d	0.05191635
109	0xbe30296d	-0.17203303
110	0x3d80149b	0.0625393
111	0xbd344a5d	-0.04401623
112	0xbd5f7259	-0.05455241
113	0xbdb93471	-0.090432055
114	0x3bc00436	0.005859877
115	0xbdc05b19	-0.093923755
116	0xbdca278b	-0.098708235
117	0xbd537097	-0.051621046
118	0xbd48f0d7	-0.049057808
119	0x3d4d1e49	0.05007771
120	0x3ce2ca21	0.027684273
121	0x3db6f158	0.089327514
122	0x3d0968a3	0.033547055
123	0x3d306891	0.043068472
124	0xbdb170ea	-0.08664115
125	0xbda29c49	-0.07939965
126	0xbd9d8460	-0.07691264
127	0x3d98a30a	0.07452972
128	0xbd8f91f3	-0.070102595
129	0x3d3f8ce6	0.04676523
130	0x3cc4f420	0.02404219
131	0x3cc31ba0	0.023816884
132	0xbba8e562	-0.0051542977
133	0x3d2d16bd	0.042258013
134	0x3d820823	0.06349208
135	0xbc4f4b4a	-0.012652228
136	0xbd3c4360	-0.04596269
137	0x3e0cb62c	0.13741368
138	0xbd582ec8	-0.05277899
139	0x3dd63db4	0.10460988
140	0x3d7ba355	0.061435062
141	0x3d76cbfc	0.06025313
142	0x3d7a8cc6	0.06116941
143	0x3d5b06be	0.053473227
144	0xbe3c6861	-0.18399192
145	0x3d83ef59	0.06442136
146	0xbda48410	-0.080330014
147	0x39b8e81a	0.00035268144
148	0x3a22fd11	0.00062175194
149	0x3da0be16	0.07848756
150	0xbe4a0e9f	-0.1973214
151	0xbdf8d877	-0.121506624
152	0x3d7534c4	0.059864774
153	0xbe2dcc3d	-0.16972442
154	0x3e61c9ed	0.22049685
155	0xbd4fd086	-0.050735973
156	0x3bcd81e9	0.00627159
157	0xbe278c8f	-0.16362213
158	0x39dc5507	0.0004202502
159	0xbc9a7a14	-0.01885704
160	0x3d6d04f3	0.057866048
161	0x3b9ebad5	0.0048440495
162	0xbdb9dc98	-0.09075278
163	0x3d1bf994	0.038079813
164	0xbd9842f6	-0.07434647
165	0x3cc2f795	0.023799697
166	0xbc9beb68	-0.019033149
167	0x3da0c5ed	0.07850251
168	0x3d523e67	0.051329043
169	0x3b16bf77	0.0023002306
170	0x3de86342	0.11347057
171	0xbd6bc558	-0.05756125
172	0x3da532a4	0.080662996
173	0x3dba2ca7	0.09090548
174	0x3d735de3	0.05941571
175	0xbd25a965	-0.04044475
176	0x3ca0da6d	0.019635404
177	0x3cc804d7	0.02441637
178	0xbc32754b	-0.010892223
179	0x3cdc48c4	0.026890166
180	0xbd41bb9c	-0.04729806
181	0x3a30c323	0.0006742945
182	0xbd6d5605	-0.057943363
183	0x3d0825a3	0.03323902
184	0x3d89de5b	0.06731864
185	0xbd7eebb7	-0.062236514
186	0x3d54fb91	0.051997725
187	0xbd6a0d06	-0.057141326
188	0x3e07c4ec	0.13258713
189	0xbd188b7a	-0.03724239
190	0x3d3da5a2	0.046300538
191	0x3cd286c8	0.025699034
192	0xbd7e2c28	-0.06205383
193	0x3d38d522	0.045125134
194	0xbe2ede03	-0.17076878
195	0x3d290ba9	0.041270886
196	0xb840b04e	-4.5940564e-05
197	0xbd4a7d6c	-0.049436018
198	0xbddc5745	-0.10758833
199	0x3dfaea61	0.122517355
200	0x3cc25312	0.023721252
201	0x3d8f3a76	0.069935724
202	0xbd7d2279	-0.061800454
203	0xbc4dd0df	-0.012562006
204	0xbc1338d5	-0.008985718
205	0x3e0e13b4	0.13874704
206	0x3d9ad6e8	0.07560521
207	0xbce7c14b	-0.028290411
208	0xbcf89bd0	-0.030347735
209	0xbd3c7c5d	-0.04601704
210	0xbd113738	-0.03545305
211	0x3c446378	0.011986606
212	0xbdd0d802	-0.1019745
213	0x3d2dd907	0.0424433
214	0x3de27ab3	0.11058559
215	0xbd411585	-0.047139663
216	0xbcaba513	-0.020952737
217	0x3ddba0f1	0.107240565
218	0xbd8660f4	-0.06561461
219	0xbdd905b2	-0.105967894
220	0x3d38bdca	0.045102872
221	0x3df75e80	0.12078571
222	0xbd9008bd	-0.07032917
223	0xbe3ffc02	-0.18748477
224	0xbc210ee1	-0.009830208
225	0x3dc05ec7	0.09393077
226	0x3d16f892	0.03685815
227	0x3d9a7f42	0.07543804
228	0xbc415295	-0.011799474
229	0xbda7232a	-0.08161004
230	0x3cce638a	0.025193948
231	0xbe2dd82a	-0.16976991
232	0x3df0ad68	0.117518246
233	0xbac8847c	-0.0015298272
234	0xbdf71db4	-0.12066212
235	0xbdc71219	-0.09720249
236	0xbddd732a	-0.108129814
237	0x3e7f07f0	0.24905372
238	0x3dd996fe	0.106245026
239	0x3d8fe445	0.07025961
240	0xbd166dbc	-0.036725745
241	0x3e124147	0.14282714
242	0x3df272f5	0.118383326
243	0x3e1d008e	0.15332243
244	0x3bd665bc	0.0065428894
245	0xbd535a52	-0.051599808
246	0x3dd6d673	0.10490122
247	0xbcf686f2	-0.030093644
248	0x3d986530	0.07441175
249	0xbdcdc079	-0.10046477
250	0x3d42e552	0.04758198
251	0xbc8755f9	-0.016520487
252	0x3dc24de1	0.094875105
253	0xbd79af27	-0.060958054
254	0xbdf618b8	-0.120164335
255	0x3d85c511	0.06531728

convs.1.lin_l.bias f4 [86]
0	0x3c3111d1	0.01080747
1	0xbd9e4d18	-0.07729548
2	0xbd192efc	-0.037398323
3	0xbdd4e3cd	-0.10395012
4	0x3dd2b723	0.10288837
5	0x3cae762b	0.021296581
6	0x3d41225f	0.04715192
7	0x3cd8f55f	0.02648419
8	0xbd8f21cd	-0.06988869
9	0xbd2dad66	-0.042401694
10	0xbced1b83	-0.028943783
11	0xbdd7b295	-0.10532109
12	0x3da8b36a	0.082373455
13	0x3daa406a	0.08313067
14	0x3d076b4d	0.033061314
15	0x3cbff160	0.023430526
16	0x3c582792	0.013193028
17	0xbcaad205	-0.020852098
18	0x3dcd53ef	0.10025775
19	0xbca31eff	-0.019912241
20	0xbd1355d8	-0.03597054
21	0x3cdac7e4	0.026706643
22	0x3d380c42	0.044933565
23	0xbdd3d0cc	-0.10342559
24	0xbbddfbc8	-0.0067743994
25	0x3d9a16f9	0.07523913
26	0x3daa5107	0.08316236
27	0x3dae847e	0.08521365
28	0x3d860d82	0.06545545
29	0x3dc48763	0.095961355
30	0x3d9327b6	0.07185309
31	0x3cfbd633	0.030741787
32	0x3de84930	0.113420844
33	0x3d934bad	0.071921684
34	0xbd8f7a18	-0.070057094
35	0x3d2a61b2	0.041597076
36	0x3c874663	0.016513055
37	0x3dca7512	0.09885611
38	0x3d8bdf97	0.06829756
39	0xbd27e62e	-0.040991
40	0xbd9f508b	-0.07779034
41	0xbdbc5954	-0.091967255
42	0x3cc64c16	0.024206202
43	0x3c6a8732	0.01431446
44	0xbd0d7fe9	-0.034545813
45	0x3bec0f4e	0.007203973
46	0x3d9f49db	0.07777759
47	0x3aceebe4	0.0015786854
48	0x3d05dcc8	0.032681257
49	0xbda26895	-0.07930104
50	0xbd8ba101	-0.068178184
51	0xbced98a8	-0.029003456
52	0x3dae574e	0.08512746
53	0x3dac343f	0.08408403
54	0x3d33b149	0.043870244
55	0x3d0cbd19	0.034360025
56	0xbd9b8a40	-0.075947285
57	0xbdb7075b	-0.0893695
58	0x3d8470fa	0.06466861
59	0x3d0e465e	0.034735076
60	0xbdc2493e	-0.09486626
61	0xbda690a5	-0.081330575
62	0xbddf0623	-0.10889842
63	0x3d7022a6	0.058626793
64	0xbda7f210	-0.08200467
65	0x3d3bd596	0.04585799
66	0x3d4a8eb0	0.049452484
67	0xbd9d390f	-0.07676899
68	0x3afe375f	0.0019395164
69	0x3d7bbd41	0.061459783
70	0xbdd4e785	-0.10395721
71	0xbdf0c76a	-0.11756785
72	0xbd446958	-0.047952026
73	0xbce8f624	-0.028437681
74	0xbd49e713	-0.049292635
75	0xbdbb5d33	-0.09148636
76	0x3cd3487c	0.0257914
77	0x3dcbdb4b	0.09953936
78	0x3c51f1a9	0.012813964
79	0xbbcd8a2a	-0.006272574
80	0x3d6634aa	0.056202568
81	0x3d1edcdf	0.038784858
82	0x3d1f8dd5	0.03895362
83	0xbdcd3858	-0.10020512
84	0x3cda5c62	0.02665538
85	0xbde33c3a	-0.11095472

convs.1.lin_r.weight f4 [86, 86]
0	0xbd97f64a	-0.07420023
1	0xbd9a6575	-0.07538883
2	0x3d958e2e	0.07302509
3	0xbc51b677	-0.012799851
4	0x3a810f88	0.0009846548
5	0x3b36aa48	0.0027872492
6	0xbd6e31f3	-0.058153104
7	0x3bfcb48c	0.0077119526
8	0x3c80aa47	0.015706195
9	0xbd397b67	-0.0452837
10	0x3dbb0dd6	0.09133498
11	0xbd262525	-0.040562768
12	0x3d99986b	0.074997745
13	0xbbe361d8	-0.006939154
14	0x3ddbff49	0.10742051
15	0xbe2e6568	-0.17030871
16	0xbdfacf3d	-0.12246559
17	0x3d9626b9	0.073316045
18	0xbd5cd721	-0.0539161
19	0xbdb4486d	-0.088028766
20	0x3d53d3d6	0.051715694
21	0xbe0792a6	-0.13239536
22	0x3d33a589	0.04385904
23	0xbd4b1b17	-0.04958638
24	0x3c3ef77e	0.011655686
25	0x3dcabdb1	0.09899462
26	0x3ce017e6	0.027355146
27	0x3d2121fc	0.03933905
28	0xbd917d4e	-0.07103978
29	0x3c9c87df	0.019107757
30	0x3cd12136	0.025528532
31	0x3dd27603	0.10276415
32	0xbd9510b1	-0.07278574
33	0x3daef66c	0.08543095
34	0x3d995484	0.07486823
35	0xbd0b344e	-0.03398543
36	0x3c8e9b29	0.01740797
37	0xbd5a6667	-0.053320315
38	0xbe031603	-0.12801366
39	0x3d412ccc	0.047161862
40	0x3ba79659	0.0051143584
41	0x3bd5e6c7	0.006527755
42	0x3d5a0172	0.053224035
43	0xbd35b7ae	-0.044364624
44	0xbda6834f	-0.08130514
45	0xbcaf6dd7	-0.02141468
46	0x3cd71ccc	0.026258849
47	0xbdb2811b	-0.08716031
48	0x3df616c2	0.120160595
49	0x3b8e6248	0.004345212
50	0xbb87456b	-0.0041281483
51	0xbc991652	-0.018687401
52	0x3cc61c83	0.024183517
53	0x3db3dd62	0.0878246
54	0x3cab3b78	0.02090238
55	0xbdb58d15	-0.088648
56	0xbda1a940	-0.0789361
57	0x3de40121	0.11133028
58	0x3d8df6b2	0.06931819
59	0xbe2c9680	-0.16854286
60	0x3db254e0	0.08707595
61	0xbe007b4b	-0.12547033
62	0xbde449eb	-0.11146911
63	0xbd8f54a1	-0.069985636
64	0x3c956844	0.018238194
65	0xbcb72bff	-0.022359846
66	0x3dcdf10d	0.100557424
67	0x3db10e1a	0.08645268
68	0xbd216a3a	-0.039407946
69	0x3da3b165	0.0799282
70	0x3c82c4b8	0.015962943
71	0x3e127adb	0.14304678
72	0x3da7a72a	0.08186181
73	0xbb026220	-0.0019894913
74	0xbd4a63d1	-0.0494116
75	0xbd52485c	-0.05133854
76	0x3dce5eb8	0.1007666
77	0xbce9acd7	-0.0285248
78	0xbd2045cb	-0.03912906
79	0x3d0261ef	0.031831678
80	0x3d9e2ac1	0.077229984
81	0xbd55b26b	-0.052172106
82	0x3d5147df	0.051093932
83	0x3c954488	0.018221155
84	0x3dc7042c	0.097175926
85	0x3da3efca	0.080047205
86	0x3d841b16	0.06450479
87	0x3dd8c402	0.105842605
88	0x3d343b8e	0.04400211
89	0xbd9dd4b7	-0.07706588
90	0x3bd19294	0.0063956473
91	0x3d477798	0.048698038
92	0xbd8fbe60	-0.07018733
93	0x3b87708d	0.00413329
94	0x3d865084	0.06558326
95	0xbd9f9cce	-0.0779358
96	0xbdf79ccd	-0.12090454
97	0x3cb9afe9	0.022666888
98	0xbdcb4355	-0.09924952
99	0x3cdbb605	0.026820192
100	0x3b5a08d5	0.0033269424
101	0xbced0676	-0.028933745
102	0xbd3fc8d2	-0.046822377
103	0xbd94b053	-0.07260194
104	0x3da78699	0.08179969
105	0x3d3cb8c8	0.04607466
106	0x3c343a32	0.011000203
107	0x3dd96b83	0.10616209
108	0x3b0b16dd	0.0021223344
109	0xbe0a2d59	-0.13493861
110	0x3dbe685f	0.09297251
111	0xbd7f6b73	-0.06235833
112	0x3cc1f2cb	0.023675343
113	0xbc976a2c	-0.018483244
114	0xbddf631e	-0.10907577
115	0x3dbfe70e	0.09370242
116	0xbd3f85fc	-0.046758637
117	0xbc76faf0	-0.015074477
118	0xbd513b09	-0.05108169
119	0x3b8f0eae	0.0043657636
120	0x3da62313	0.081121586
121	0xbce5825f	-0.028016267
122	0xbd44caa9	-0.048044834
123	0x3cf97d6f	0.03045532
124	0x3ce7592f	0.028240768
125	0x3cbb1685	0.022837887
126	0xbcd88d0c	-0.026434444
127	0xbd149916	-0.036278807
128	0x3d778997	0.06043395
129	0x3d0075a0	0.031362176
130	0xbd583bff	-0.05279159
131	0x3d4cbd86	0.04998543
132	0xbd34d26d	-0.04414599
133	0xbd3d7cf0	-0.046261728
134	0xbda150e6	-0.07876758
135	0xbd9e4cae	-0.07729469
136	0xbd9293c2	-0.07157089
137	0x3da42ad0	0.08015978
138	0xbdd295e6	-0.10282497
139	0xbd8ec3e0	-0.06970954
140	0x3cbf8c06	0.023382198
141	0x3d6c0a09	0.057626758
142	0x3be40696	0.006958793
143	0xbc4d8005	-0.012542729
144	0xbb28cbf2	-0.0025756327
145	0x3cc6a1f5	0.024247149
146	0xbd12d593	-0.03584821
147	0x3d9997d2	0.074996606
148	0x3d78d6c8	0.060751706
149	0x3d1fd5ae	0.03902214
150	0xbdc454ae	-0.09586464
151	0xbdaf1038	-0.08548015
152	0x3995cdb5	0.00028572758
153	0xbe17556d	-0.14778681
154	0x3d8f5f76	0.070006296
155	0x3d2be933	0.041970443
156	0x3cd4d746	0.025981557
157	0xbdd94f96	-0.10610883
158	0xbe073742	-0.13204673
159	0x3dbb03f0	0.091316104
160	0xbdb5965c	-0.088665694
161	0xbbd554aa	-0.006510337
162	0xbde8fa8d	-0.11375914
163	0x3dd24e80	0.10268879
164	0x3a016c44	0.00049370923
165	0xbdb0ad82	-0.08626844
166	0xbc45ccb5	-0.012072732
167	0x3ccf4e4d	0.025305891
168	0xbacf857c	-0.0015832628
169	0xbd55aaae	-0.052164726
170	0x3c8b7c88	0.017027155
171	0xbd9f5f94	-0.07781902
172	0xbd92c7ea	-0.07167037
173	0xbd77854d	-0.06042986
174	0xbd705142	-0.058671243
175	0x3dbb6c31	0.09151495
176	0x3ce36de1	0.027762355
177	0x3daeabcc	0.085288614
178	0xbdc1e166	-0.094668195
179	0xbbb02d0f	-0.005376465
180	0xbd85e8bf	-0.065385334
181	0xbdaae301	-0.08344079
182	0x3d37b157	0.04484686
183	0xbcbeb724	-0.023280688
184	0xbb455434	-0.0030110003
185	0xbdde08c3	-0.10841515
186	0xbd6cd9db	-0.05782495
187	0xbd29ac18	-0.041423887
188	0x3dbbca24	0.09169415
189	0x3d55170d	0.052023936
190	0xbde4dab2	-0.11174525
191	0xbda606ac	-0.08106741
192	0xbd93959d	-0.07206271
193	0x3d13e6fe	0.036108963
194	0xbdbba254	-0.09161821
195	0x3d180be0	0.0371207
196	0x3dca7ebf	0.09887456
197	0x3dcd6b1d	0.10030196
198	0x3da07a3d	0.07835815
199	0x3ddbca54	0.107319504
200	0x3d7e5a02	0.062097557
201	0x3d49a711	0.049231593
202	0x3d161444	0.03664042
203	0xbb9f87f0	-0.0048685
204	0xbbd94171	-0.0066301157
205	0x3dfc5ca1	0.12322355
206	0xbd620974	-0.055184796
207	0x3cc7827a	0.024354208
208	0x3d113920	0.03545487
209	0xbc9ff464	-0.019525714
210	0x3ddfb6f8	0.109235704
211	0xbda41b23	-0.080129884
212	0xbc427f07	-0.011871106
213	0x3c95b52b	0.018274864
214	0xbbae4fee	-0.005319587
215	0x3cbd8cbb	0.023138395
216	0x3d93ba43	0.07213261
217	0x3deb50bb	0.114900075
218	0xbdd49e9a	-0.10381813
219	0x3d3c58df	0.04598319
220	0x3d2ca318	0.042147726
221	0x38a6c52e	7.9522244e-05
222	0xbdaff8ef	-0.08592402
223	0xbc6ecb60	-0.014574856
224	0x3c294825	0.010332142
225	0x3d7ed690	0.06221634
226	0xbc673058	-0.014110647
227	0xbdbb8c11	-0.09157575
228	0xbdda6c68	-0.10665208
229	0xbdbc53f9	-0.09195704
230	0xbca4f985	-0.020138511
231	0x3d0422cf	0.03225976
232	0x3de40649	0.11134011
233	0xbd660dc1	-0.05616546
234	0xbe3061ad	-0.1722476
235	0x3cb74f42	0.02237666
236	0x3ddf3168	0.10898095
237	0x3e380290	0.17969728
238	0x3d5523e2	0.052036174
239	0x3dd13bc1	0.10216475
240	0xbd99e1f2	-0.07513799
241	0x3e14e080	0.14538765
242	0x3bd19e23	0.006397025
243	0x3d928046	0.071533725
244	0x3cdcc5af	0.026949732
245	0xbcff68ac	-0.031177841
246	0x3daa9a99	0.083302684
247	0x3db01f0f	0.08599674
248	0xbc654597	-0.013993642
249	0xbd160c8d	-0.036633063
250	0x3c8cc5e7	0.017184211
251	0x3d84f5fe	0.06492232
252	0x3c4de7a0	0.012567431
253	0xbd33b6e0	-0.043875575
254	0xbd8ba2c1	-0.06818152
255	0xbd81a5b6	-0.06330435

convs.2.lin_l.weight f4 [86, 86]
0	0x3d63d2e2	0.055621035
1	0xbdad82f1	-0.08472241
2	0x3dd8b778	0.10581869
3	0xbcabe2ce	-0.020982172
4	0xbd9c77b2	-0.076400176
5	0x3df10455	0.117684044
6	0xbdd080f3	-0.10180845
7	0xbd7fce70	-0.062452734
8	0x3cfc4bab	0.0307978
9	0xbd934297	-0.071904354
10	0xbc21786f	-0.009855374
11	0x3d692e02	0.056928642
12	0x3b2350cd	0.0024919987
13	0x3cc9952c	0.024607264
14	0x3b3ad95f	0.002851091
15	0xbd5cdcbf	-0.053921457
16	0x3e161f48	0.1466037
17	0x3de73bbd	0.11290691
18	0x3cf47122	0.029839102
19	0x3dc6a924	0.0970023
20	0xbd68315f	-0.05668771
21	0x3d0930cf	0.033493813
22	0xbcfca89e	-0.030842122
23	0x3c9ca678	0.019122347
24	0xbd96df91	-0.07366861
25	0xbd8e2081	-0.069397934
26	0xbd0fd159	-0.03511176
27	0x3d8a657b	0.06757637
28	0xbd9e9d3c	-0.07744834
29	0xbd5b4a9d	-0.053537954
30	0xbd401fcc	-0.046905324
31	0x3db98ddf	0.09060263
32	0x3cbf79ad	0.02337345
33	0x3e094076	0.13403496
34	0xbc84c76a	-0.01620837
35	0x3cf15ae7	0.02946229
36	0x3b185802	0.0023245816
37	0xbd9637e0	-0.07334876
38	0xbd91a7ce	-0.07112084
39	0x3d69d7db	0.05709062
40	0x3d8b5bba	0.06804605
41	0x3cc0b5c8	0.02352418
42	0x3d182663	0.037145983
43	0x3cd240bb	0.025665632
44	0xbd4da81d	-0.050209153
45	0x3e1ca6a2	0.1529794
46	0x3dfeaaa2	0.124348894
47	0x3db0c517	0.08631342
48	0xbd07ff84	-0.033202663
49	0xbc8ead03	-0.017416483
50	0xbb94dcc2	-0.004542918
51	0xbdac0419	-0.08399219
52	0x3d0a6799	0.033790205
53	0xbbf526ac	-0.0074814167
54	0x3bf913a6	0.007601219
55	0x3d15dd48	0.036587983
56	0xbd12f3b7	-0.035876956
57	0x3d93fd4b	0.07226046
58	0x3c9f3ed3	0.019439137
59	0xbd065487	-0.032795455
60	0x3d64a6c2	0.055823095
61	0x3de2e4f6	0.11078827
62	0xbd9a4dcd	-0.075343706
63	0xbd411fd6	-0.0471495
64	0x3d4f0eff	0.05055141
65	0x3cc8a404	0.024492271
66	0xbc194465	-0.009354685
67	0x3d3d55cf	0.04622441
68	0xbd9405bd	-0.07227657
69	0xbaeeab60	-0.0018209033
70	0x3c51cf03	0.012805703
71	0xb8c09fc7	-9.185034e-05
72	0xbc94204e	-0.01808181
73	0x3db89a6e	0.0901383
74	0xbc86a77a	-0.01643728
75	0xbdac61ac	-0.08417067
76	0x3ddc2ba7	0.107505135
77	0x3d377d72	0.04479737
78	0x3d7e1325	0.062029976
79	0x3d82fc1d	0.06395743
80	0x3dce6f69	0.100798436
81	0xbce9b27b	-0.028527489
82	0x3dc411e9	0.095737286
83	0xbd013432	-0.031543918
84	0xbcaa25f0	-0.020770043
85	0x3de3bb6f	0.111197345
86	0xbd788391	-0.060672347
87	0x3c9f801e	0.01947027
88	0x3d408733	0.047003936
89	0xbdb676f0	-0.08909404
90	0xbd87b77d	-0.066267945
91	0xbd67e2a7	-0.056612637
92	0xbd839a60	-0.06425929
93	0xbd16143f	-0.036640402
94	0xbcf2353e	-0.029566403
95	0x3d2338ce	0.039849095
96	0x3d84c917	0.06483667
97	0x3c68df0b	0.014213334
98	0xbd342b1c	-0.043986425
99	0xbd81cf60	-0.06338382
100	0xbe1a6e5d	-0.15081163
101	0x3e0b3525	0.13594492
102	0xbd106366	-0.035251044
103	0x390d839f	0.0001349584
104	0x3df3d69d	0.119061686
105	0x3dac9259	0.08426351
106	0x3d40ec01	0.04710007
107	0x3c8a3501	0.016870977
108	0x3db21cef	0.08696925
109	0xbcef8fd4	-0.029243387
110	0xbd7779ef	-0.06041902
111	0xbdb56913	-0.08857932
112	0xbb8d389e	-0.004309728
113	0xbda45b6d	-0.080252506
114	0x3e8f314a	0.27967292
115	0xbe1c279f	-0.15249489
116	0x3dc0ad51	0.094080575
117	0xbdecb6e0	-0.11558318
118	0xbc883fa0	-0.016631901
119	0xbd8df4e9	-0.069314785
120	0xbdf69065	-0.1203926
121	0xbd8c0139	-0.06836171
122	0x3e3ace36	0.18242726
123	0x3e4f5d83	0.20250516
124	0xbc838422	-0.016054217
125	0x3d4cad5b	0.049970012
126	0x3b084433	0.0020792603
127	0x3e965f46	0.29369563
128	0xbdd5a2b1	-0.104314215
129	0xbcf440ba	-0.02981602
130	0xbd9ab37d	-0.07553766
131	0x3dd16184	0.10223678
132	0xbd5ebba0	-0.054378152
133	0xbdc48de8	-0.09597379
134	0xbe1de648	-0.15419877
135	0xbdb42e29	-0.08797867
136	0xbdadff01	-0.08495904
137	0x3d4a4a35	0.049387176
138	0x3e098af7	0.13431917
139	0x3d78944f	0.060688313
140	0xbe01d69b	-0.12679522
141	0xbd9daec7	-0.07699352
142	0x3caec99c	0.02133637
143	0xbd47659f	-0.048680898
144	0xbe35712d	-0.17718954
145	0x3d093378	0.03349635
146	0x3e278ceb	0.1636235
147	0x3d7dfe19	0.062009905
148	0x3d27c674	0.040960744
149	0xbe0a70f5	-0.13519652
150	0xbd1539ee	-0.0364322
151	0x3daad108	0.08340651
152	0xbe0534e1	-0.13008453
153	0xbb87fee0	-0.0041502565
154	0xbdcd0784	-0.10011199
155	0x3db918fc	0.090379685
156	0x3deeba32	0.11656608
157	0xbcb46723	-0.022021836
158	0x3c9867f5	0.018604258
159	0xbd722f74	-0.059127286
160	0x3c790345	0.015198533
161	0x3d8ac4e1	0.06775833
162	0xbddb707b	-0.10714813
163	0x3d96212e	0.07330547
164	0x3d2cd678	0.04219672
165	0x3cf96b1a	0.030446578
166	0xbdd153c8	-0.10221058
167	0xbd555dc8	-0.05209139
168	0xbe0b6457	-0.13612495
169	0xbd316830	-0.04331225
170	0xbcc49859	-0.023998426
171	0xbdad4d12	-0.084619656
172	0x3c85c28c	0.016328119
173	0xbdbcba2f	-0.09215199
174	0x3d1c0ddf	0.038099166
175	0xbd28d02d	-0.041214157
176	0xbc05da45	-0.008169715
177	0x3e0f90c9	0.14020075
178	0xbdfdbda8	-0.1238969
179	0x3d2e7c4a	0.042599
180	0xbd895472	-0.0670556
181	0x3da3cd6a	0.07998164
182	0xbc90a492	-0.017656598
183	0x3ce8ebbf	0.028432725
184	0x3de11840	0.109909534
185	0xbd117e55	-0.03552087
186	0x3da3929a	0.079869464
187	0x3a70948f	0.00091774104
188	0x3e30477c	0.17214769
189	0x3d9b381a	0.0757906
190	0xbd4863d2	-0.04892332
191	0x3db17eef	0.08666789
192	0xbd0c77ea	-0.034294046
193	0x3d31ba3c	0.043390498
194	0xbd104e36	-0.035230838
195	0x3d83d47f	0.06437015
196	0x3db5a131	0.088686354
197	0xbd96c096	-0.073609516
198	0xbe17d60a	-0.14827743
199	0x3b106147	0.0022030638
200	0xbdaac133	-0.08337631
201	0x3ce93b31	0.028470607
202	0x3d865190	0.065585256
203	0x3d21dc64	0.03951682
204	0xbcff4c9b	-0.031164458
205	0x3d2764ab	0.04086749
206	0xbcb2d652	-0.021830712
207	0x3da67bb4	0.08129063
208	0x3e2d7804	0.16940314
209	0xbe1626f7	-0.14663301
210	0xbe0c3cda	-0.13695088
211	0xbc9ef7f8	-0.01940535
212	0xbd76ce92	-0.060255595
213	0x3d14fc32	0.036373325
214	0x3bc9f644	0.0061633904
215	0x3d96b1d8	0.0735814
216	0x3e0506b9	0.12990846
217	0x3ce4c234	0.027924635
218	0x3e6c8f52	0.23101547
219	0x3db054de	0.08609937
220	0x3d9fec13	0.078086995
221	0x3de00cd7	0.10939949
222	0xbccc195f	-0.024914442
223	0xbc1a5281	-0.0094190845
224	0xbbfc7592	-0.007704445
225	0xbd0d07ce	-0.03443127
226	0x3d329712	0.043601103
227	0xbda0a4fc	-0.07843968
228	0xbdc39699	-0.095502086
229	0xbcd309d6	-0.025761526
230	0xbc414851	-0.011797027
231	0x3dc24718	0.09486216
232	0x3db3875d	0.08766053
233	0x3d4973f4	0.049182847
234	0x3d0ed222	0.034868367
235	0xbe0755bc	-0.13216299
236	0x3db95f3c	0.09051368
237	0xbdb99db4	-0.090632826
238	0xbce78a6a	-0.028264243
239	0x3b3c4789	0.0028729162
240	0xbb9f6217	-0.004863988
241	0x3cde1260	0.027108371
242	0x3d65f768	0.056144148
243	0x3da25829	0.079269715
244	0xbcda70c8	-0.026665106
245	0xbdeaa684	-0.114575416
246	0xbb95beb9	-0.004569855
247	0xbd8bf7b4	-0.06834355
248	0xbda16244	-0.07880071
249	0x3a832ba9	0.0010007519
250	0xbbbb82fb	-0.005722401
251	0x3d660a5c	0.056162223
252	0x3d2c5b83	0.04207946
253	0xbe2ae101	-0.16687395
254	0x3d6afc1e	0.057369344
255	0x3dde7dc3	0.10863831

convs.2.lin_l.bias f4 [86]
0	0x3c368478	0.011139981
1	0x3c174073	0.0092316745
2	0x3cbe5c78	0.023237452
3	0xbdac44d7	-0.08411568
4	0x3d8f724c	0.07004222
5	0xbd8fe9ce	-0.070270166
6	0xbdde09be	-0.10841702
7	0xbd1f3216	-0.038866125
8	0x3da49688	0.08036524
9	0x3d8e6916	0.06953637
10	0x3de5ef5b	0.11227294
11	0x3db86731	0.09004057
12	0x3bc23290	0.0059264377
13	0x3c9b642c	0.018968664
14	0xbb582702	-0.0032982235
15	0x3dd7472d	0.105116226
16	0xbdbd2a73	-0.09236612
17	0x3d9c05cc	0.07618293
18	0xbd962a27	-0.07332259
19	0x3d8c0b0b	0.06838044
20	0x398c82a1	0.00026800207
21	0x3d4f756f	0.050649103
22	0xbb131bba	-0.0022446946
23	0xbdc0a066	-0.094055936
24	0x3d595a26	0.053064488
25	0xbdafc7ad	-0.08583007
26	0xbb2c75e8	-0.0026315395
27	0x3d88d385	0.06680969
28	0xbd98bae4	-0.074575216
29	0x3d5e5d08	0.05428794
30	0xbd5af55e	-0.053456657
31	0x3c6efd22	0.014586719
32	0x3d1ddb57	0.038539257
33	0x3d9f429a	0.07776375
34	0xbb54333b	-0.0032379169
35	0x3d56dfc2	0.052459486
36	0x3c27343f	0.0102053275
37	0xba0f9aa0	-0.0005478058
38	0xbd46ada4	-0.04850544
39	0x3deb228f	0.11481201
40	0x3cf7d56a	0.030253131
41	0x3cc5a19d	0.024124915
42	0x3ce88fe4	0.028388925
43	0xbd2e6471	-0.042576257
44	0x3cd6e13d	0.026230449
45	0xbd27c59b	-0.040959936
46	0x3cb1dfc5	0.021713147
47	0x3d87805b	0.06616279
48	0x3c947c34	0.01812563
49	0xbd3500bd	-0.044190157
50	0xbca55124	-0.020180292
51	0x3d473374	0.048633054
52	0xbd8fc8a2	-0.070206895
53	0x3d929a67	0.07158356
54	0xbd4225d6	-0.047399364
55	0x3c60673e	0.01369649
56	0xbdc60909	-0.09669692
57	0x3d561b00	0.052271843
58	0xbd84d74a	-0.06486376
59	0x3c9eda62	0.019391242
60	0x3d6b036e	0.057376318
61	0x3d5c8e55	0.053846676
62	0x3d99ecc1	0.0751586
63	0xbc823258	-0.015893146
64	0xbd6945cf	-0.05695134
65	0xbd500f9e	-0.050796144
66	0x3d8265be	0.06367062
67	0xbdb2df86	-0.0873404
68	0x3d59a08c	0.053131625
69	0xbd51a970	-0.05118698
70	0xbd8d3632	-0.068951026
71	0x3d1b6d2f	0.037945922
72	0xbd1c705a	-0.038193084
73	0xbd20ae3c	-0.039228663
74	0xbd6ca0f0	-0.05777067
75	0xbcbc0b23	-0.02295453
76	0xbd8803ad	-0.06641326
77	0xbdb23b1d	-0.08702681
78	0xbd8bf06b	-0.068329655
79	0xbd3814c8	-0.044941694
80	0xbcb9b577	-0.022669537
81	0x3ce030b0	0.027366966
82	0x3df8d699	0.12150306
83	0x3d220377	0.039554086
84	0xbd875771	-0.06608475
85	0xbc9d6cb6	-0.019216876

convs.2.lin_r.weight f4 [86, 86]
0	0x3bef9077	0.0073109227
1	0x3d88476f	0.0665425
2	0x3da9166a	0.08256228
3	0xbb63a9f8	-0.003473876
4	0x3d60aec2	0.054854162
5	0x3c8d862c	0.017275892
6	0xbcb7c873	-0.022434449
7	0xbdbc3f52	-0.09191765
8	0xbdcc5841	-0.099777706
9	0xbb8a891c	-0.0042277705
10	0x3ccdbed0	0.0251154
11	0xbdafa04a	-0.085754946
12	0xbc954477	-0.018221123
13	0x3d891f23	0.06695392
14	0xbd2cab50	-0.042155564
15	0x3d85364e	0.065044984
16	0x3ab065e7	0.0013458104
17	0x3c15e5dd	0.009149042
18	0xbd04860b	-0.032354396
19	0xbd8ba92a	-0.06819375
20	0x3d18eedc	0.03733717
21	0xbd71de4d	-0.059049893
22	0xbdcdd729	-0.10050804
23	0xbd675f43	-0.056487333
24	0xbd6485f6	-0.055791818
25	0xbbed6f34	-0.0072459225
26	0xbda3338e	-0.07968818
27	0x3d606ba7	0.054790165
28	0x3c1db592	0.009625809
29	0xbd0f775e	-0.035025947
30	0x3d43c633	0.04779644
31	0x3b16cc0e	0.002300981
32	0xbe027a2a	-0.12741914
33	0x3dca9996	0.098925754
34	0xbd533e11	-0.051572863
35	0x3d9a76e9	0.075422116
36	0x3b4329a9	0.002977947
37	0x3cf36c4a	0.029714722
38	0x3d6993f7	0.057025876
39	0xbcafb22c	-0.021447264
40	0xbdaba97a	-0.083819345
41	0xbd919cae	-0.071099624
42	0xbd18ed7a	-0.03733585
43	0x3d88c4cc	0.06678161
44	0x3dca0fce	0.09866296
45	0x3d791c25	0.060817856
46	0x3c676ecf	0.01412554
47	0x3ca21ed1	0.019790085
48	0xbd00a2cb	-0.03140525
49	0xbc00024d	-0.007813049
50	0x3dab6277	0.0836839
51	0x3d40626c	0.046968862
52	0xbdb2ee2c	-0.08736834
53	0xbdb2e944	-0.08735898
54	0x3d0d8a5e	0.034555785
55	0x3c76833e	0.015045939
56	0xbc6ee1ce	-0.014580203
57	0xbdaaf2fb	-0.08347126
58	0xbd492a9f	-0.049112912
59	0x3da08788	0.078383505
60	0xbb693e06	-0.0035589947
61	0x3dcf03cf	0.10108148
62	0x3d32ea34	0.043680385
63	0xbd7b8b8a	-0.06141237
64	0xbbbee1c3	-0.0058252527
65	0xbd1787a2	-0.036994584
66	0x3dbf7fb0	0.09350526
67	0x3cef48f8	0.029209599
68	0x3ddac410	0.10681927
69	0x3d8ba936	0.06819384
70	0xbd6bc7c1	-0.057563547
71	0x3dbe189e	0.09282039
72	0x3dafc3ed	0.08582292
73	0xbd05b1ac	-0.032640144
74	0xbcf9abee	-0.03047749
75	0xbd1bc094	-0.038025454
76	0x3dbd1959	0.0923335
77	0x3d99be41	0.07506991
78	0xbd5f4628	-0.054510266
79	0xbcddc3e5	-0.027070949
80	0x3d0eb6a8	0.034842163
81	0xbdbaa0b7	-0.09112685
82	0xbdc15bdb	-0.09441348
83	0x3dd55234	0.104160696
84	0xbdbe8468	-0.09302598
85	0x3cde47f7	0.027133925
86	0xbd6d2953	-0.057900738
87	0xbd6077f6	-0.054801904
88	0x3d684eb2	0.056715675
89	0x3d9c0daa	0.07619794
90	0x3c7e4c53	0.015521127
91	0xbde8f947	-0.11375671
92	0x3d9b9b4c	0.0759798
93	0xbdad420a	-0.084598616
94	0x3d0bbc7e	0.034115307
95	0x3d9c4095	0.076295055
96	0xbd8170bb	-0.0632033
97	0x3ccf68ab	0.025318464
98	0xbc9a2ae9	-0.01881929
99	0xbcfe165a	-0.031016517
100	0xbcb77c94	-0.02239827
101	0xbc9082ae	-0.017640438
102	0xbde63627	-0.112407975
103	0xbd07b80b	-0.0331345
104	0x3dbbfe82	0.09179403
105	0x3d9e699b	0.077349864
106	0x3d5f5fcd	0.054534722
107	0x3dff4887	0.12465005
108	0x3dbb2e78	0.091397226
109	0x3db12b56	0.08650844
110	0xbe10ac16	-0.14128146
111	0xbda8e58e	-0.08246909
112	0x3dc25bba	0.09490152
113	0x3d39673a	0.04526446
114	0x3df911f1	0.12161625
115	0xbdb94d1d	-0.09047911
116	0x3bb1ec0e	0.0054297512
117	0xbdb97e7c	-0.09057328
118	0x3e1d7713	0.15377454
119	0xbdc630c7	-0.09677272
120	0x3c989724	0.018626757
121	0xbd160b4a	-0.03663186
122	0xbbb4464f	-0.0055015455
123	0xbbe022a0	-0.006840065
124	0xbbbd8e8b	-0.0057848147
125	0xbd7c105b	-0.061539035
126	0xbb856b71	-0.004071646
127	0x3e320a33	0.17386703
128	0xbd66977e	-0.056296818
129	0xbd4e5867	-0.050377276
130	0x3b89ba8f	0.0042031477
131	0xbdc4f392	-0.0961677
132	0xbdccb817	-0.0999605
133	0xbdc1e8c2	-0.09468223
134	0xbdac3aab	-0.084096275
135	0xbe3dc948	-0.18533814
136	0xbd10c52b	-0.035344284
137	0xbc19a180	-0.0093768835
138	0xbd085bd8	-0.033290714
139	0xbd7a81bb	-0.061158877
140	0xbda6d194	-0.081454426
141	0xbd944bae	-0.07240997
142	0xbdd398a1	-0.10331846
143	0xbdaa9ca2	-0.083306566
144	0xbe54dcf4	-0.20787412
145	0x3dacde59	0.08440847
146	0x3da29a60	0.07939601
147	0xbdbbee57	-0.09176319
148	0xbcc672fd	-0.024224753
149	0x3df7c961	0.12098957
150	0x3d93ace6	0.07210712
151	0x3dda1776	0.10649006
152	0xbd01ccf2	-0.03168959
153	0x3ac4f8c3	0.001502775
154	0xbda2e216	-0.07953279
155	0x3be5183e	0.0069914153
156	0x3d00a523	0.031407487
157	0xbdca2228	-0.09869796
158	0x3d05af42	0.032637842
159	0x3d9f19dd	0.07768605
160	0xbde05e69	-0.10955507
161	0x3c81ae96	0.01583032
162	0x3b1bf488	0.0023796875
163	0xbd5905b6	-0.052983962
164	0x3dc2f83d	0.09520004
165	0xba2e0ff4	-0.00066399504
166	0xbd24ec17	-0.040264215
167	0xbd1238af	-0.03569859
168	0xbcbc4c65	-0.022985647
169	0x3cbbc5af	0.022921411
170	0xbb9b6d30	-0.004743241
171	0xbca95e10	-0.020674735
172	0xbcb40384	-0.021974333
173	0x3c10c673	0.0088363765
174	0x3d7d1912	0.061791487
175	0x3d88f4ab	0.06687292
176	0xbd07906c	-0.033096716
177	0x3d96ce30	0.07363546
178	0xbc00135f	-0.007817118
179	0x3dc74a8d	0.09731016
180	0x3d0012bb	0.031267863
181	0xbd23ed54	-0.040021256
182	0xbc9a0184	-0.01879955
183	0x3d6b2815	0.057411272
184	0xbc912fb2	-0.017722938
185	0xbdb551f9	-0.08853526
186	0x3c421b5e	0.011847345
187	0xbc63a0ff	-0.013893365
188	0x3d1e08ba	0.03858254
189	0xbc8e6a27	-0.017384602
190	0xbc222782	-0.009897115
191	0xbda20e54	-0.07912889
192	0xbbfbdf91	-0.0076865633
193	0xbdb46642	-0.08808567
194	0x3d3fc58b	0.04681925
195	0xbd35ad5c	-0.04435478
196	0x3d96db17	0.07366007
197	0xbd4cecfb	-0.05003069
198	0x3d2b715a	0.041856147
199	0x3d62071e	0.05518257
200	0xbbf57e2a	-0.0074918466
201	0x3db35447	0.08756309
202	0xbda997cc	-0.08280906
203	0xbd9fd571	-0.078043826
204	0x3d12fe72	0.03588719
205	0xbb73d331	-0.0037204737
206	0xbd13718e	-0.035996966
207	0x3c86ca54	0.0164539
208	0x3d99a869	0.07502825
209	0xbdab515d	-0.08365128
210	0x3d403a6c	0.046930715
211	0x3c8ea429	0.017412262
212	0x3d3b6b1b	0.04575644
213	0xbd2b2f45	-0.041793127
214	0x3baf5429	0.005350609
215	0x3dd32e13	0.10311522
216	0x3d46ba22	0.048517354
217	0xbd864941	-0.06556941
218	0x3d75a32b	0.059970062
219	0x3c5ca898	0.01346793
220	0x3b248c73	0.0025108128
221	0x3d7a593f	0.061120268
222	0x3d3d7c56	0.046261154
223	0x3bc46b29	0.00599422
224	0x3db58273	0.08862772
225	0x3d91279e	0.070876345
226	0x3dad309c	0.08456537
227	0xbd41c7c3	-0.04730965
228	0xbda97ec3	-0.08276131
229	0xbdb26bf8	-0.08712
230	0x3c6a1812	0.014287965
231	0xbc6eb394	-0.014569182
232	0x3c2c1db1	0.010505126
233	0x3d12364f	0.035696324
234	0xbd8178c4	-0.06321862
235	0x3d9fbb02	0.07799341
236	0x3d204913	0.03913219
237	0xbd0889de	-0.033334605
238	0x3b1ae785	0.0023636532
239	0xbce8e0e7	-0.028427554
240	0xbd34242b	-0.043979805
241	0xbd3191f6	-0.04335209
242	0x3dcecb53	0.10097375
243	0xbc94e3c3	-0.018175012
244	0x3d250ff8	0.040298432
245	0x3dd74b68	0.105124295
246	0x3c367b5c	0.01113781
247	0xbd8b1be1	-0.06792427
248	0x3cc2fce9	0.023802238
249	0x3d977f83	0.07397368
250	0xbdb14e64	-0.0865753
251	0xbc9c9b08	-0.019116893
252	0xbcad4552	-0.021151219
253	0x3c84e9d4	0.01622478
254	0x3d82aa25	0.06380109
255	0xbd55cf8f	-0.052199896
